models/dl_model.pth (torch, 21138 bytes, 5 tensors)

0.weight f4 [64, 5]
0	0x3edccf22	0.4312678
1	0xbeae4a76	-0.34041184
2	0xbea9e18d	-0.33179894
3	0xbe52b3ac	-0.20576352
4	0x3e33c801	0.17556764
5	0x3ea1a30a	0.315697
6	0x3ebaee90	0.36510134
7	0xbe224277	-0.15845667
8	0x3e33f865	0.17575224
9	0x3d184c69	0.037182245
10	0x3e1a4032	0.15063551
11	0x3ea2761d	0.31730738
12	0x3e5106b7	0.20412718
13	0x3e36176d	0.17782374
14	0x3e918e98	0.28429103
15	0x3dab1e94	0.08355442
16	0x3ef7824a	0.4834159
17	0x3e4b811f	0.19873475
18	0xbe3a7c07	-0.18211375
19	0x3df8f9d2	0.121570244
20	0xbd34e054	-0.04415925
21	0xbec83aaf	-0.39107272
22	0x3e9b309e	0.3031053
23	0x3d1d5329	0.038409386
24	0xbe55e65b	-0.20888655
25	0x3e1de72d	0.15420218
26	0x3d4a3ddd	0.049375404
27	0xbe8acb83	-0.27108392
28	0xbe1852ee	-0.14875385
29	0xbe711c5a	-0.23545972
30	0x3b5ace37	0.0033387074
31	0x3db00df5	0.08596412
32	0x3edfc67f	0.43706128
33	0x3eb8ee00	0.3611908
34	0x3ed29126	0.41126364
35	0x3cb4620c	0.022019409
36	0xbec63b1d	-0.38716975
37	0xbe4c347d	-0.19941898
38	0xbedd4e61	-0.4322386
39	0x3e0f4a11	0.13993098
40	0xbf1ff3fa	-0.62481654
41	0xbea37aff	-0.31929776
42	0xbe21f4b6	-0.15816006
43	0xbefc904e	-0.49328846
44	0x3d12cc91	0.03583962
45	0x3e49a9d3	0.19693689
46	0x3ec2abd5	0.38021722
47	0x3e8a7ba2	0.2704745
48	0xbee717b2	-0.45135266
49	0x3ebadf7d	0.36498633
50	0x3e8cb028	0.27478147
51	0xbe35de5d	-0.17760606
52	0x3e7cee82	0.24700359
53	0xbeface12	-0.48985344
54	0x3e5dd375	0.21662696
55	0x3ee7be61	0.45262435
56	0x3e906309	0.28200558
57	0x3eca72ab	0.3954061
58	0x3e171e85	0.14757736
59	0xbea36e53	-0.31920108
60	0x3eaeed06	0.3416521
61	0xbe86a240	-0.26295662
62	0xbd513bb6	-0.051082335
63	0x3eb226f5	0.34795347
64	0x3e891f42	0.2678166
65	0x3dcdebc1	0.10054732
66	0x3d7bca72	0.061472364
67	0xbccfc9e5	-0.025364826
68	0xbe881b2c	-0.2658323
69	0xbe6940f5	-0.22778685
70	0xbeb7bd26	-0.35886496
71	0x3e88c6c7	0.26714155
72	0x3e9f2d5d	0.31089297
73	0xbd015998	-0.031579584
74	0xbe9bf15e	-0.30457586
75	0x3e9e3592	0.30900246
76	0x3e8f82a0	0.28029346
77	0xbe9761c0	-0.29566765
78	0x3e579198	0.21051633
79	0x3c25d4fd	0.010121581
80	0xbda49a37	-0.08037227
81	0x3eb4c701	0.35308078
82	0xbe107b93	-0.1410964
83	0xbe897d00	-0.2685318
84	0x3e9a5b31	0.301477
85	0x3c9d45bf	0.019198297
86	0xbecb31cf	-0.39686438
87	0xbe2c3411	-0.16816737
88	0x3ec8b7e4	0.39202797
89	0x3ed46922	0.4148646
90	0xbece55d6	-0.40299863
91	0xbe12d6b8	-0.14339721
92	0x3e4e73d4	0.20161372
93	0xbe7233d1	-0.23652579
94	0xbecd8473	-0.40140113
95	0x3e7da1db	0.24768774
96	0xbe9ef9c4	-0.3104993
97	0xbe875db3	-0.26438674
98	0x3e25534e	0.1614506
99	0xbe89c716	-0.26909703
100	0xbe5f855a	-0.21828213
101	0xbe910322	-0.28322703
102	0x3e9703d7	0.29495117
103	0x3cf1d5bf	0.029520867
104	0x3f12227b	0.57083863
105	0x3ecd032f	0.4004149
106	0xbe622e25	-0.22087915
107	0xbddfe509	-0.10932357
108	0xbcc643e4	-0.024202295
109	0xbe7c7485	-0.24653824
110	0xbe85cc7d	-0.26132575
111	0xbeb740c7	-0.3579161
112	0x3e33e85d	0.17569108
113	0xbec209ca	-0.37898093
114	0xbbd758ea	-0.0065718787
115	0xbeaf8e33	-0.34288177
116	0x3e2719b0	0.16318393
117	0x3ecade3a	0.3962267
118	0xbea86dad	-0.32896176
119	0x3e402a52	0.18766144
120	0xbeda3d50	-0.42624903
121	0xbe046a6d	-0.12931223
122	0x3e81ee76	0.25377244
123	0x3e9d6011	0.30737355
124	0x3e803823	0.2504283
125	0x3d84f574	0.06492129
126	0x3eb702bc	0.35744274
127	0xbed0b867	-0.40765688
128	0x3ee8de1a	0.4548195
129	0xbe697f66	-0.22802505
130	0xbed046aa	-0.40678912
131	0x3ba6f83a	0.005095509
132	0xbe2b60b4	-0.16736108
133	0x3ed0601d	0.4069833
134	0xbedefed1	-0.43553784
135	0x3e772e2e	0.2413871
136	0x3dd84f2a	0.10561974
137	0xbeadafcb	-0.33923182
138	0xbd0c9f94	-0.034331873
139	0xbe8f3b06	-0.2797472
140	0x3ef0f7c9	0.47064045
141	0x3e73bf08	0.23803341
142	0x3ec17ab3	0.37788925
143	0x3f02700c	0.5095222
144	0x3ee20249	0.44142368
145	0x3ea8f6a8	0.33000684
146	0xbe876b25	-0.26448932
147	0xbdf0918b	-0.1174651
148	0x3e12cc26	0.14335689
149	0x3f05a07b	0.52198
150	0x3e47b10b	0.1950113
151	0xbd99b1af	-0.075045936
152	0x3cf90a19	0.030400323
153	0xbeb71ecb	-0.3576568
154	0x3d87f26a	0.06638034
155	0x3ec7034f	0.38869712
156	0xbdaed3d5	-0.085364975
157	0xbd33e866	-0.043922804
158	0x3d5a4cc4	0.053295866
159	0xbd2f407c	-0.042786106
160	0x3e291511	0.16511942
161	0x3d925fe7	0.07147198
162	0xbe63d5c0	-0.22249508
163	0xbeb1a56f	-0.34696528
164	0xbd95889e	-0.07301448
165	0xbe291ee3	-0.16515689
166	0xbe6b2f70	-0.22967315
167	0x3e163bff	0.14671324
168	0xbeaec7c2	-0.34136778
169	0xbd34d21b	-0.044145685
170	0x3e5fa97c	0.21841997
171	0x3e2a346d	0.16621561
172	0xbe1cfe4a	-0.15331379
173	0xbea4775f	-0.32122323
174	0xbed4dc59	-0.41574362
175	0x3ebe544c	0.37173688
176	0x3ebb8700	0.36626434
177	0xbdbfb20e	-0.09360133
178	0x3e570060	0.20996237
179	0xbde940c2	-0.11389305
180	0x3d246376	0.040133916
181	0x3e9978e2	0.2997504
182	0x3e7b8f20	0.24566317
183	0x3ecfc573	0.4058033
184	0x3ec9a991	0.3938718
185	0x3de22d26	0.11043768
186	0x3f088967	0.5333466
187	0x3e2f9427	0.1714636
188	0xbdec2e56	-0.115322754
189	0x3d9adbf2	0.075614825
190	0x3db4c121	0.08825899
191	0x3ea2ab49	0.31771305
192	0x3d4999f2	0.04921908
193	0x3ea66df0	0.3250575
194	0x3d49fe22	0.049314626
195	0x3ed91e07	0.42405722
196	0xbe461e96	-0.19347605
197	0xbe806022	-0.25073344
198	0xbeae83f9	-0.34085062
199	0x3ed0ade8	0.4075768
200	0xbe86d318	-0.26332927
201	0xbee034fa	-0.43790418
202	0x3e0ae8b8	0.13565338
203	0xbe925ca3	-0.285863
204	0xbdf07f5d	-0.117430426
205	0xbd77ca74	-0.06049581
206	0x3e0f65d6	0.14003691
207	0xbec17524	-0.37784684
208	0x3e4703a2	0.1943498
209	0xbeb62e7b	-0.35582337
210	0xbe1bdefc	-0.1522178
211	0x3cdb9508	0.026804462
212	0xbe9fe779	-0.31231287
213	0x3e9cc30c	0.3061756
214	0xbe9003fa	-0.28128034
215	0xbd224ae3	-0.0396222
216	0x3ec607af	0.38677737
217	0xbcc14261	-0.023591222
218	0x3e0b49b3	0.13602333
219	0x3e6493ef	0.22322057
220	0x3e41118e	0.18854353
221	0xbcd52d5b	-0.026022604
222	0x3e96e8d4	0.2947451
223	0xba56b51d	-0.000819044
224	0xbd5425f9	-0.051794026
225	0xbe006769	-0.12539448
226	0x3e7e5eee	0.248409
227	0xbdaa78b9	-0.08323807
228	0x3f08ecb4	0.5348618
229	0x3e23275e	0.15932986
230	0x3e23fb61	0.16013862
231	0xbce301f1	-0.027710887
232	0xbe35dc4b	-0.17759816
233	0x3c39bbf3	0.0113363145
234	0x3eec7e5c	0.46190155
235	0xbe3f6177	-0.18689524
236	0x3e17c39a	0.1482071
237	0x3ec094e5	0.37613598
238	0x3e63f664	0.2226196
239	0xbe0dd2de	-0.1384997
240	0x3c3c7a8c	0.011503827
241	0xbe4ed067	-0.20196687
242	0xbcabc86a	-0.020969588
243	0x3e0ff14f	0.14056896
244	0xbd3b0baa	-0.04566542
245	0xbeb9758f	-0.36222503
246	0x3e4a36ca	0.19747463
247	0x3e80c71f	0.25151917
248	0xbdf2c90d	-0.11854754
249	0x3dfa8255	0.1223189
250	0x3d49ff9d	0.049316037
251	0x3e14abce	0.14518663
252	0x3e2d9d7e	0.1695461
253	0x3f061c9c	0.52387404
254	0x3f159424	0.5842917
255	0x3e69632b	0.22791736

0.bias f4 [64]
0	0x3ee2d0ca	0.44299918
1	0xbce14e7d	-0.027503246
2	0xbd658f84	-0.05604507
3	0xbd9b8c0e	-0.07595073
4	0xbd90e669	-0.07075197
5	0xbe53b5b4	-0.20674783
6	0x3d637a96	0.05553683
7	0xbe245627	-0.1604849
8	0x3f08c4e7	0.5342545
9	0x3ef9bd2f	0.48777148
10	0x3ea0fc6e	0.3144259
11	0x3ec9e451	0.39432004
12	0xbe916dd5	-0.28404108
13	0x3ea9c4d5	0.33157983
14	0xbe950482	-0.29105002
15	0x3eda67ca	0.4265731
16	0x3e21cfe3	0.15801959
17	0xbed8012e	-0.421884
18	0xbe18c7a0	-0.14919901
19	0x3eb12520	0.34598637
20	0x3e798510	0.24367166
21	0xbd84247b	-0.064522706
22	0xbe6f4a85	-0.2336827
23	0x3ea40daf	0.3204169
24	0xbebc9a16	-0.36836308
25	0xbe8c5d23	-0.27414808
26	0xbd32b8db	-0.043633323
27	0x3e832fa0	0.25622272
28	0x3ee64676	0.44975632
29	0x3dcab076	0.098969385
30	0xbe3497c4	-0.17636019
31	0xbeab577f	-0.33465192
32	0x3ed264c5	0.41092506
33	0x3ecc4ecf	0.39903876
34	0xbe84f59a	-0.2596863
35	0x3db2c080	0.08728123
36	0xbd8d9c83	-0.06914618
37	0xbcc78865	-0.02435703
38	0x3ef0f079	0.47058466
39	0xbee7c7b8	-0.4526956
40	0xbdb6b86b	-0.08921894
41	0xbd92b202	-0.071628585
42	0x3ea0d47e	0.3141212
43	0xbdeed492	-0.11661638
44	0xbeecbbf6	-0.46237153
45	0xbde9a15c	-0.1140773
46	0xbd3619be	-0.044458143
47	0xbdd432b5	-0.10361234
48	0xbd1785cc	-0.036992833
49	0xbe00bce2	-0.12572053
50	0x3ea0cb90	0.31405306
51	0xbd5773ec	-0.052600786
52	0xbca637aa	-0.020290215
53	0xbe1354e4	-0.14387852
54	0xbea403a4	-0.32034028
55	0x3ed00302	0.40627295
56	0x3eab68a0	0.3347826
57	0x3f077013	0.52905387
58	0xbd11266d	-0.035437036
59	0x3f092b2f	0.5358152
60	0x3f017069	0.5056215
61	0xbe6696a1	-0.22518398
62	0x3d8f8822	0.07008387
63	0xbe379ba8	-0.17930472

2.weight f4 [64, 64]
0	0xbd5590b5	-0.052139957
1	0x3d9cf3f6	0.07663719
2	0xbd02ec44	-0.0319636
3	0xbd78f80c	-0.06078343
4	0xbdb06534	-0.08613053
5	0xbcfd54c0	-0.030924201
6	0x3dedee01	0.11617661
7	0xbd47556c	-0.04866545
8	0x3d2c0bc9	0.042003427
9	0xbd84d9ca	-0.064868525
10	0x3cfe1a1e	0.031018313
11	0xbe04ca7e	-0.1296787
12	0xbd900c6c	-0.07033619
13	0x3d110636	0.035406314
14	0x3de2524a	0.11050852
15	0xbb08c19b	-0.002086735
16	0xbce1a7e3	-0.027545875
17	0x3ded3886	0.115830466
18	0x3ca034f0	0.019556493
19	0x3c7cd064	0.015430544
20	0xbd658690	-0.056036532
21	0x3d043d78	0.032285184
22	0x3d3bb4bc	0.04582666
23	0xbd13e208	-0.036104232
24	0x3d337018	0.043808073
25	0x3d615fec	0.05502312
26	0xbc24f620	-0.010068446
27	0xbdf6a0c4	-0.12042382
28	0xbe0108ef	-0.12601064
29	0xbe00589f	-0.12533806
30	0x3dd383c2	0.10327865
31	0xbdb985e2	-0.09058739
32	0x3dcac2c0	0.09900427
33	0x3da13cb2	0.07872905
34	0xbc1ca360	-0.009560436
35	0xbd23aec7	-0.039961603
36	0xbc8dfc18	-0.017332122
37	0xbdec14e4	-0.11527422
38	0x3d4b89b0	0.049691856
39	0x3dbc9dbc	0.09209773
40	0xbd190540	-0.037358522
41	0x3dc5fd40	0.09667444
42	0x3dd6580a	0.10466011
43	0x3cd9cd88	0.026587263
44	0x3d7ba610	0.061437666
45	0xbdf08d26	-0.11745672
46	0xbd575280	-0.052568913
47	0xbd9900a2	-0.07470824
48	0xbdb6fbc4	-0.08934739
49	0xbcee2468	-0.029070094
50	0xbdb9df1e	-0.09075759
51	0xbd8d48ea	-0.06898673
52	0xbddb870e	-0.10719119
53	0xbc58f0f0	-0.013241038
54	0x3dccae4a	0.099941805
55	0x3a9eea88	0.0012124339
56	0xbd0650ca	-0.03279189
57	0x3de7d301	0.11319543
58	0xbdbea23e	-0.09308289
59	0x3d54298d	0.05179744
60	0x3c81c792	0.015842233
61	0xbdab2cec	-0.083581775
62	0xbde5f377	-0.11228078
63	0xbdfeac74	-0.124352366
64	0xbd53decd	-0.05172615
65	0xbd1c456c	-0.038152143
66	0x3c864a0a	0.016392726
67	0xbd32e692	-0.04367692
68	0xbd8b1b52	-0.0679232
69	0x3d02ee60	0.031965613
70	0xbdd7858e	-0.105235204
71	0x3dd7e2c6	0.105413005
72	0xbe58cceb	-0.2117192
73	0x3d8c11fc	0.06839368
74	0x3d46bdd7	0.04852089
75	0x3d06272c	0.0327522
76	0xbdeaad4c	-0.11458835
77	0xbe10d904	-0.14145285
78	0x3d1fdfc8	0.039031774
79	0x3c8cc088	0.01718165
80	0x3d413049	0.04716519
81	0x3d02f65c	0.031973228
82	0xbc3fd5f0	-0.0117087215
83	0x3ca034f0	0.019556493
84	0xbde546c5	-0.11195139
85	0x3b1023a3	0.0021993897
86	0x3d715bd4	0.058925465
87	0xbe0ed228	-0.13947356
88	0xbdf7969a	-0.12089272
89	0x3d955d47	0.07293182
90	0xbd3c2364	-0.04593219
91	0xbcaca2bc	-0.021073692
92	0x3d3382f0	0.043826044
93	0x3d706ede	0.05869948
94	0x3d6ad594	0.05733259
95	0x3dfe4d8b	0.12417134
96	0xbdef72f8	-0.116918504
97	0xbec08bbc	-0.3760661
98	0xbdd72026	-0.10504179
99	0xbd918600	-0.071056366
100	0x3c7ddfea	0.01549528
101	0xbdce0079	-0.10058684
102	0xbc8aae07	-0.016928686
103	0xbd923fc8	-0.071410716
104	0x3d590928	0.052987248
105	0x3dfb623c	0.12274596
106	0xbd951cc0	-0.07280874
107	0xbd4d8591	-0.050176207
108	0x3db2d098	0.08731192
109	0x3bbda112	0.0057870233
110	0x3ee28e56	0.4424922
111	0xbcbc8b46	-0.02301563
112	0xbdf7884a	-0.12086542
113	0x3df2b190	0.118502736
114	0x3cc766a8	0.024340943
115	0x3d075689	0.03304151
116	0x3de17b14	0.110098034
117	0xbcdd8d98	-0.027045056
118	0xbd6a4140	-0.057191133
119	0x3d82fc49	0.06395776
120	0xbdd81ebb	-0.10552736
121	0xbc989e5c	-0.0186302
122	0xbe2e4bab	-0.17021053
123	0xbdc9f9c3	-0.098620914
124	0xbda1761f	-0.07883858
125	0xbdf9442c	-0.12171206
126	0x3d4c6bc1	0.04990745
127	0xbc9c5990	-0.019085675
128	0xbdddde43	-0.10833409
129	0xbdf77bf7	-0.12084191
130	0xbd7b51f5	-0.061357457
131	0xbcfc92fa	-0.030831803
132	0x3c04ea30	0.008112475
133	0xbde64086	-0.112427756
134	0xbd0bd074	-0.034134343
135	0xbdeeb618	-0.116558254
136	0xbdb38361	-0.08765293
137	0xbd181e49	-0.037138257
138	0xbd52ccb2	-0.051464744
139	0xbdae2203	-0.08502581
140	0xbd30ee74	-0.043196157
141	0xbd231eb5	-0.039824206
142	0xbd57b8a4	-0.05266632
143	0x3d334393	0.043765616
144	0x3cb85278	0.022500262
145	0xbdb36702	-0.087598816
146	0xbda51314	-0.080602795
147	0xbdb67845	-0.08909658
148	0x3c8d053e	0.017214414
149	0xbd8187f8	-0.06324762
150	0x3d3b3a30	0.04570979
151	0xbdb1b00e	-0.08676158
152	0xbdf95e24	-0.12176159
153	0x3cce3ea0	0.025176346
154	0x3c23f140	0.010006249
155	0xbd922a2a	-0.071369484
156	0x3dcd1325	0.10013417
157	0x3ddaf65e	0.10691522
158	0x3d181f00	0.03713894
159	0xbd59760a	-0.053091086
160	0xbd7f66a8	-0.06235376
161	0xbcdcd758	-0.026958153
162	0x3d3e5da4	0.04647602
163	0xbe042d61	-0.12907936
164	0xbb9ce3e0	-0.004787907
165	0xbcec88e9	-0.028873878
166	0xbc4794b5	-0.012181451
167	0xbde1f430	-0.11032903
168	0x3d0cdf48	0.034392625
169	0xbd410710	-0.047125876
170	0xbdf0e297	-0.117619686
171	0x3cd37d70	0.02581665
172	0x3d290bd1	0.041271035
173	0x3d65463a	0.055975176
174	0xbc15947a	-0.009129638
175	0x3da07c17	0.07836168
176	0xbdeba128	-0.115053475
177	0x3d459778	0.048240155
178	0x3cb60f1c	0.022224002
179	0xbd0f0e24	-0.034925595
180	0x3d983e68	0.07433778
181	0x3c37f470	0.011227712
182	0xbd8edba8	-0.0697549
183	0x3b402580	0.0029319227
184	0x3d9c3dc3	0.076289676
185	0xbd30de3e	-0.043180697
186	0x3db99bb5	0.09062902
187	0x3cdbf5a4	0.026850529
188	0xbbdbba7e	-0.006705581
189	0x3dbfc610	0.09363949
190	0xbce50c50	-0.027959973
191	0x3dafe8ea	0.08589347
192	0xbd670309	-0.05639938
193	0x3de78a4a	0.113056734
194	0x3e61ce6e	0.22051403
195	0xbc66abc8	-0.014079042
196	0xbd029104	-0.03187658
197	0xbd772374	-0.060336545
198	0x3d735b2f	0.05941313
199	0x3c603920	0.013685495
200	0x3e4331f0	0.19062018
201	0xbdcc8013	-0.09985366
202	0xbe252325	-0.16126688
203	0x3e39bb81	0.18137933
204	0x3dfe7736	0.124250814
205	0xbd4ebbec	-0.050472185
206	0xbc846258	-0.016160175
207	0x3d3522e7	0.04422274
208	0x3d8f9840	0.07011461
209	0xbd805d2e	-0.062677726
210	0x3df0134a	0.11722429
211	0xbe22498a	-0.15848365
212	0x3d850d58	0.06496686
213	0x3e016d8a	0.12639442
214	0xbdcb9dd2	-0.09942211
215	0xbda16b84	-0.07881835
216	0x3db2f9f6	0.087390825
217	0x3ead53e7	0.33853075
218	0xbde045a0	-0.1095078
219	0xbc4257d6	-0.011861762
220	0x3c16918e	0.009189976
221	0x3d6f397a	0.058404423
222	0x3dc4af60	0.096037626
223	0xbe036f8e	-0.12835523
224	0xbda5acf2	-0.08089627
225	0x3e77ff48	0.24218476
226	0xbd8312ac	-0.06400046
227	0x3e27e953	0.163976
228	0x3e1c1dcb	0.1524574
229	0x3c33d5fc	0.010976311
230	0x3d719295	0.058977682
231	0x3d8b61d7	0.06805771
232	0x3c91b570	0.017786711
233	0xbcfac790	-0.030612737
234	0xbc59917a	-0.013279313
235	0x3e4ccd5b	0.20000212
236	0xbe87e82e	-0.26544327
237	0x3e82f6f1	0.25579026
238	0xbeeef1f2	-0.46668965
239	0xbcb398f1	-0.021923514
240	0x3d94127c	0.07230088
241	0x3d4dcf3f	0.050246473
242	0x3dd18a5e	0.102314696
243	0x3d9d6c25	0.076866426
244	0x3dae7f53	0.08520379
245	0xbc775220	-0.015095264
246	0x3de89ed4	0.11358419
247	0xbee11887	-0.43964025
248	0xbad1d632	-0.001600927
249	0xbcef44ee	-0.029207673
250	0xbd0208e0	-0.031746745
251	0xbd644a0c	-0.05573468
252	0x3cbd36fe	0.023097511
253	0xbde16706	-0.11005978
254	0x3d33c88e	0.043892436
255	0xbda00db2	-0.07815112

2.bias f4 [64]
0	0xbd05e11d	-0.032685388
1	0xbcd61ac2	-0.026135806
2	0xbdd54fff	-0.10415649
3	0x3d76595e	0.06014382
4	0x3d3bf5b4	0.045888618
5	0x3dd2c06e	0.10290609
6	0xbde69916	-0.112596676
7	0x3d94dfbc	0.072692364
8	0xbd97acd2	-0.0740601
9	0xbd7f23b2	-0.0622899
10	0x3dabe5ab	0.08393415
11	0xbde69c3a	-0.112602666
12	0x3d158881	0.036507133
13	0x3d983d28	0.0743354
14	0xbcf8564f	-0.030314593
15	0x3d2ae4bc	0.041722044
16	0xbd3f65cc	-0.04672794
17	0x3ccba57e	0.024859186
18	0xbd4fe990	-0.050759852
19	0xbdbf8660	-0.09351802
20	0xbd62564e	-0.055258088
21	0x3d5cf3fe	0.053943627
22	0x3e580837	0.21096884
23	0x3e7029d3	0.23453455
24	0xbcd4b7d0	-0.025966555
25	0x3c4f2a5a	0.012644375
26	0x3d0bd826	0.034141682
27	0xbe013c9c	-0.12620777
28	0x3d3bf450	0.04588729
29	0xbdf6e83b	-0.12056013
30	0x3c776fe8	0.015102364
31	0x3d0061be	0.031343214
32	0xbd89367e	-0.06699847
33	0xbd2e00de	-0.042481296
34	0x3e2705ef	0.16310857
35	0x3c666ee5	0.014064525
36	0x3d433297	0.047655668
37	0xbdc87a86	-0.097889945
38	0xbd49485a	-0.049141265
39	0xbdc95f02	-0.098325744
40	0x3da32af1	0.07967175
41	0x3db087a8	0.086196244
42	0x3c716c06	0.014735227
43	0xbe21c96e	-0.15799496
44	0x3bef99e4	0.0073120464
45	0x3d692f32	0.056929775
46	0xbdf1c222	-0.11804606
47	0x3dfe308c	0.12411603
48	0xbccebe14	-0.02523712
49	0xbd290998	-0.041268915
50	0x3dc62e1d	0.09676764
51	0xbde03968	-0.109484494
52	0xbd629294	-0.05531557
53	0xbd3f6d16	-0.04673489
54	0xbdb693ba	-0.08914895
55	0xbdf56eae	-0.11984001
56	0xbdc3dfc2	-0.09564163
57	0xbd803364	-0.06259802
58	0xbcd6c97a	-0.026219118
59	0xbd30bf95	-0.043151457
60	0x3d1b9d4e	0.037991814
61	0x3cfe2d5a	0.031027485
62	0xbde00cd5	-0.109399475
63	0x3d43f0b2	0.047836967

4.weight f4 [1, 64]
0	0x3dbf1815	0.09330765
1	0xbd859ca7	-0.0652402
2	0xbc62af1e	-0.0138356965
3	0x3d8cb156	0.06869762
4	0x3e39b8a0	0.18136835
5	0xbd9e9656	-0.07743518
6	0x3da67278	0.08127302
7	0xbddc1038	-0.10745281
8	0x3cb9f930	0.02270183
9	0xbe142ec6	-0.14470968
10	0xbe8c7522	-0.27433115
11	0xbdaa451c	-0.08313963
12	0x3df26541	0.11835719
13	0xbccf5965	-0.025311181
14	0x3e43718e	0.19086286
15	0xbd11eacc	-0.03562431
16	0x3d77d198	0.06050262
17	0x3e23d19f	0.15997933
18	0x3de5200c	0.11187753
19	0x3e3445dd	0.17604776
20	0x3de02206	0.109439895
21	0x3e26903b	0.16265957
22	0xbe9407be	-0.28912157
23	0xbe6dfdd9	-0.23241366
24	0x3e4206fd	0.18947978
25	0x3dd1185a	0.10209723
26	0x3e32a8d4	0.17447215
27	0x3d847e7f	0.0646944
28	0x3d5f4a24	0.054514065
29	0xbd9d1054	-0.0766913
30	0x3e130182	0.14356044
31	0xbda10545	-0.07862333
32	0x3df1b93e	0.1180291
33	0xbb24f58f	-0.0025170778
34	0xbe17289b	-0.14761584
35	0x3df9e6fe	0.122022614
36	0xbd6b8aef	-0.057505544
37	0xbd195f58	-0.037444443
38	0x3be0e211	0.0068628867
39	0x3d45689c	0.048195466
40	0xbdccf2be	-0.10007237
41	0xbd042293	-0.032259535
42	0x3da7d0f9	0.08194155
43	0x3df10298	0.11768073
44	0xbf05d2bf	-0.522747
45	0x3dfe639a	0.12421341
46	0x3db4eb74	0.088339716
47	0xbe883fd7	-0.26611206
48	0xbd08450a	-0.033268966
49	0xbce6ee58	-0.028189823
50	0xbcd07698	-0.025447175
51	0xbd3f0878	-0.046638936
52	0xbc2cc250	-0.010544375
53	0x3e27179c	0.163176
54	0xbce9ec48	-0.02855505
55	0xbdd0cee4	-0.10195711
56	0x3dd75c76	0.105156824
57	0x3e257590	0.16158128
58	0xbd142580	-0.036168575
59	0x3e551226	0.20807704
60	0xbd246e69	-0.040144358
61	0x3de082cf	0.1096245
62	0x3e760f22	0.2402921
63	0xba9cdf12	-0.0011968336
