models/dl_nn_predictor.pt (torch, 208992 bytes, 8 tensors)

weight_ih_l0 f4 [256, 5]
0	0x3d66bd8a	0.056333102
1	0xbbeb6a42	-0.007184298
2	0xbd46722b	-0.048448723
3	0xbd479198	-0.048722833
4	0xbd221052	-0.039566346
5	0x3db9b26d	0.09067235
6	0xbd736cf0	-0.059430063
7	0x3d05aefb	0.032637578
8	0xbd51a5d0	-0.05118352
9	0xbd2ba61a	-0.041906454
10	0xbd84dced	-0.06487451
11	0x3c93fbcb	0.0180644
12	0x3e0ba2cd	0.13636322
13	0x3da96aae	0.08272301
14	0xbb4c7ec2	-0.0031203483
15	0x3c70ef19	0.014705443
16	0xbdb245d5	-0.08704726
17	0xbd9fa1d1	-0.07794536
18	0xbd3c02cf	-0.045901116
19	0x3e0c16da	0.13680592
20	0xbdde19ae	-0.10844742
21	0x3da86b8e	0.082236394
22	0xbd1ae71b	-0.037818056
23	0x3d880f16	0.066435024
24	0x3dad36b3	0.08457699
25	0xbddddd89	-0.1083327
26	0x3d4f7f83	0.050658714
27	0x3de75c49	0.11296899
28	0xbc8882e5	-0.016663978
29	0x3daf00ad	0.08545051
30	0x3d29e2d8	0.0414761
31	0x3d0ba87b	0.034096222
32	0xbd94470b	-0.07240113
33	0x3d76fe79	0.060301278
34	0xbd8edc74	-0.06975642
35	0x3d38faa7	0.045160916
36	0xbde0f74e	-0.109846696
37	0x3d4d1cde	0.050076358
38	0xbdb30c20	-0.08742547
39	0x3dceaec9	0.100919314
40	0xbc69d867	-0.014272786
41	0xbd278837	-0.04090139
42	0xbb98baa7	-0.0046609226
43	0x3dc5379f	0.096297495
44	0x3dc775f5	0.097392954
45	0x3d525fa4	0.05136074
46	0xbde8cfb7	-0.113677435
47	0xbca531dc	-0.020165376
48	0xbd9f69ff	-0.07783889
49	0xbc5778c3	-0.01315135
50	0x3c166bb3	0.009180951
51	0x3cbf9891	0.023388179
52	0x3da4144f	0.08011686
53	0x3da2bf51	0.07946647
54	0x3db0e41c	0.086372584
55	0xbdd5eff3	-0.10446157
56	0x3de61867	0.11235123
57	0xbdfa63c2	-0.122260585
58	0xbd9d0bbf	-0.07668256
59	0x3dde6d1b	0.10860654
60	0xbcbdd373	-0.023172116
61	0xbd96148c	-0.07328138
62	0x3c099a6d	0.008398634
63	0xbded4c51	-0.11586822
64	0xbd974a04	-0.07387164
65	0xbccb21d6	-0.024796408
66	0xbd41d552	-0.04732258
67	0x3cc8c6be	0.02450883
68	0xbd96ae15	-0.07357422
69	0xbdf7eca0	-0.121056795
70	0xbdb3e632	-0.08784141
71	0xbc9def4d	-0.019279147
72	0x3dbdd84c	0.09269771
73	0xbdb5c8e8	-0.088762105
74	0x3c04bcf6	0.008101692
75	0xbdaabe70	-0.08337104
76	0x3d84ce3e	0.0648465
77	0xbdb950c6	-0.090486094
78	0x3d3574e2	0.04430092
79	0xbdcfd759	-0.10148496
80	0xbd18132b	-0.037127655
81	0xbc9cd8eb	-0.019146403
82	0xbc57a3d5	-0.013161619
83	0x3a880ee3	0.0010380413
84	0x3c3ccbca	0.0115231965
85	0xbd9bb310	-0.07602513
86	0x3c65e498	0.014031552
87	0xbd8e21b3	-0.06940021
88	0x3d21da34	0.039514735
89	0x3db6581e	0.08903526
90	0x3d84afff	0.06478881
91	0xbdc5f4dd	-0.096658446
92	0x3c817c79	0.015806424
93	0xbdf22348	-0.118231356
94	0x3d6d3244	0.057909265
95	0x3df8d0a5	0.12149171
96	0x3caac239	0.020844566
97	0x3d4872be	0.04893755
98	0x3dfb9564	0.122843534
99	0x3c9ac1ab	0.018891176
100	0xbd52f838	-0.05150625
101	0xbda2cca9	-0.07949192
102	0x3c13a4f6	0.009011498
103	0x3cb4a56a	0.022051532
104	0xbd9a4c0a	-0.075340346
105	0xbcecd7c9	-0.028911488
106	0xbda93377	-0.08261769
107	0xbd78de33	-0.06075878
108	0xbdb11338	-0.08646244
109	0xbdbf06d5	-0.09327475
110	0x3debdd84	0.1151686
111	0xbdc79d2a	-0.097467735
112	0xbcf2b5fc	-0.029627793
113	0xbd337cc3	-0.043820154
114	0x3d8b9d69	0.06817133
115	0xbcf4f015	-0.029899636
116	0xbd9865e4	-0.07441309
117	0xbd139d77	-0.036038842
118	0xbcea972e	-0.028636541
119	0xbd1498fa	-0.036278702
120	0xbd91c77c	-0.07118127
121	0xbddb78e5	-0.10716418
122	0xbddbb5a6	-0.10728006
123	0xbd89a528	-0.06720954
124	0x3dabe2e7	0.083928876
125	0xbe0c0491	-0.13673617
126	0xbc5601a5	-0.0130619155
127	0xbdb280c2	-0.08715965
128	0x3d232e45	0.039839048
129	0x3c299363	0.010350081
130	0x3c4aaa25	0.012369667
131	0xbd5af73a	-0.05345843
132	0xbd61a8af	-0.05509251
133	0x3d934b8a	0.07192142
134	0xbd65a620	-0.056066632
135	0xbb5a79e9	-0.0033336824
136	0x3da969b4	0.082721144
137	0xbdfba58b	-0.12287434
138	0x3c346c2b	0.011012117
139	0xbdc6dd51	-0.097101815
140	0xbe0e9262	-0.13923028
141	0xbd5d614e	-0.054047875
142	0xbdd770dd	-0.10519574
143	0x3dd55f89	0.104186125
144	0x3d662431	0.05618686
145	0x3d6abe6e	0.057310514
146	0xbc4101be	-0.0117802005
147	0x3d118651	0.035528485
148	0x3c46c3d5	0.012131651
149	0x3e01964f	0.12654994
150	0xbcaf6ac5	-0.021413216
151	0x3d11b2d5	0.03557094
152	0x3dd785ed	0.10523591
153	0x3ddd31c2	0.10800506
154	0x3de62061	0.112366445
155	0xbd82b1a5	-0.06381539
156	0x3d850864	0.06495741
157	0xbdb37d86	-0.08764176
158	0xbc6411ed	-0.013920289
159	0xbddb0183	-0.10693648
160	0xbca1319f	-0.019676981
161	0xbdd856d4	-0.10563436
162	0xbdee64b4	-0.11640301
163	0xbd2e5fdb	-0.042571884
164	0x3da624c3	0.081124805
165	0xbd933384	-0.0718756
166	0x3d715bb2	0.058925338
167	0x3c61227b	0.013741131
168	0xbd7f6a56	-0.06235727
169	0xbdaaa820	-0.083328485
170	0xbced1f06	-0.028945457
171	0xbd7fbbc6	-0.062434934
172	0x3cc5ef5c	0.024161987
173	0xbc472d58	-0.012156807
174	0xba86cc3a	-0.0010284253
175	0xbc46c143	-0.012131038
176	0x3d116731	0.0354988
177	0xbde6c30b	-0.1126767
178	0x3d131e0a	0.03591732
179	0x3ded5e9c	0.11590311
180	0x3c8b9126	0.017036986
181	0xbdc07bc2	-0.09398605
182	0xbdc751a4	-0.097323686
183	0xbcc07c76	-0.023496848
184	0x3d3100c9	0.04321364
185	0xbb910106	-0.004425171
186	0x3dfc93d1	0.12332881
187	0x3dc23352	0.09482445
188	0xbd281e32	-0.04104442
189	0x3ddc9555	0.1077067
190	0x3d5ea132	0.054352947
191	0xbd838f11	-0.06423772
192	0xbc5f54a4	-0.01363102
193	0xbd321cd2	-0.043484516
194	0xbc6f6430	-0.014611289
195	0xbe15ee37	-0.14641653
196	0xbdf73de8	-0.120723546
197	0xbc8666a6	-0.016406368
198	0x3da3c1d3	0.079959534
199	0x3e1b3aab	0.15159099
200	0x3de4104f	0.11135923
201	0xbdec7bed	-0.115470745
202	0x3da1f019	0.07907123
203	0xbbdb1937	-0.0066863555
204	0xba38f2f1	-0.0007055244
205	0x3cbe868d	0.023257518
206	0x3d717d2c	0.058957264
207	0xbdc5cd58	-0.09658307
208	0xbc7574bf	-0.014981448
209	0xbd320a36	-0.04346677
210	0xbcde7e60	-0.02715987
211	0xbd8c55ee	-0.06852327
212	0xbdfc2fe5	-0.12313823
213	0xbda46f20	-0.08029008
214	0xbd8c9333	-0.068640135
215	0xbb83c27f	-0.0040209885
216	0x3d136c1c	0.035991773
217	0xbd5d0d9b	-0.053968053
218	0x3d5a6245	0.053316373
219	0x3d8c35ca	0.06846197
220	0x3cf67e53	0.030089533
221	0x3dcd2304	0.10016444
222	0xbd964217	-0.073368244
223	0xbdd7dee1	-0.10540558
224	0x3dca9420	0.09891534
225	0x3bdca3c2	0.0067333886
226	0xbdeacb15	-0.11464516
227	0x3ddbcb63	0.10732152
228	0x3dc0e2e6	0.094182774
229	0x3d8ff210	0.07028592
230	0x3d19409e	0.03741514
231	0xbdb25cc0	-0.08709097
232	0x3d232e90	0.039839327
233	0x3dbe24cd	0.09284363
234	0xbdb11306	-0.086462066
235	0xbbeeb17d	-0.007284342
236	0x3dd2b72b	0.10288843
237	0x3c0cb197	0.008587263
238	0x3dc3c439	0.09558911
239	0x3db85be3	0.09001901
240	0x3d30dcc8	0.043179303
241	0x3d1a8f95	0.037734587
242	0xbcd6ae2b	-0.026206097
243	0xbc16782c	-0.009183925
244	0xbc984bee	-0.018590894
245	0xbd985d65	-0.074396886
246	0x3c2171ee	0.009853823
247	0xbd40058a	-0.046880282
248	0xbd9789dd	-0.07399342
249	0xbd16d8db	-0.036827903
250	0x38e3443f	0.00010836915
251	0xbdef9330	-0.11697996
252	0x3d28f459	0.041248653
253	0xbde6088b	-0.11232098
254	0xbd2f09bf	-0.042733904
255	0x3dc6e860	0.09712291

weight_hh_l0 f4 [256, 64]
0	0xbcd87dd9	-0.026427196
1	0xbd3b1bc0	-0.04568076
2	0xbd6858bb	-0.056725245
3	0x3dbb1ef4	0.09136763
4	0xbdc0b433	-0.0940937
5	0xbda7cdb3	-0.08193531
6	0x3d8bdb49	0.06828935
7	0xbd8f6c8d	-0.07003126
8	0x3bdb8225	0.006698864
9	0x3c1f800e	0.00973512
10	0xbde4600c	-0.11151132
11	0xbcf0c13c	-0.029389016
12	0x3d140439	0.03613684
13	0xbdba5d0c	-0.090997785
14	0x3c92dc8d	0.017927432
15	0xba8dee6f	-0.0010828505
16	0x3ddec1e7	0.10876828
17	0xbd677244	-0.056505457
18	0xbd7df961	-0.062005404
19	0x3d8185af	0.06324326
20	0x3d9b2aea	0.075765446
21	0x3d8cb499	0.06870384
22	0x3c2cf214	0.010555763
23	0xbda53e75	-0.08068553
24	0xbdd87aa1	-0.105702646
25	0xbc87b67b	-0.016566506
26	0x3ba8ddf9	0.0051534143
27	0x3e0c7597	0.13716732
28	0xbc626ac7	-0.013819403
29	0xbdd499cc	-0.10380897
30	0x3d35fc2f	0.044429954
31	0x3c02bbee	0.007979376
32	0xbd29c50b	-0.04144768
33	0x3b7cee6e	0.0038594264
34	0x3db1ef96	0.086882755
35	0x3dd648f1	0.10463131
36	0xbdb77611	-0.08958066
37	0x3df343be	0.11878155
38	0x3b8cd46a	0.0042977827
39	0xbe1ae999	-0.15128173
40	0x3d618d84	0.0550666
41	0x3d2770dd	0.04087912
42	0x3d8cb430	0.068703055
43	0x3da3da4d	0.08000622
44	0xbdf08108	-0.11743361
45	0xbdc6fb4d	-0.097159006
46	0xbc8edc34	-0.017438985
47	0x3daf1385	0.08548645
48	0x3d96b3f8	0.07358545
49	0xbde4d6f2	-0.1117381
50	0x3c61436a	0.013748983
51	0x3d2b4ac0	0.041819334
52	0xbdf3a00f	-0.11895763
53	0xbd90ee6c	-0.07076725
54	0x3d18896d	0.037240434
55	0xbd4988cc	-0.049202725
56	0x3e0007de	0.12503001
57	0x3e12faea	0.14353529
58	0xbd95c09f	-0.0731213
59	0xbdf94765	-0.121718206
60	0xbd2dfdde	-0.042478435
61	0x3d82c651	0.06385482
62	0x3d241445	0.040058393
63	0x3bada008	0.005298618
64	0x3da0f324	0.078588754
65	0xbde117ee	-0.10990892
66	0x3da2916f	0.079378955
67	0xbdc32620	-0.09528756
68	0x3d1117d5	0.03542312
69	0x3d26e351	0.04074413
70	0xbdd1f2ca	-0.102513865
71	0xbb068b18	-0.0020529684
72	0x3d54cba5	0.051952023
73	0xbd844519	-0.06458492
74	0x3ddb74f5	0.10715667
75	0xbc22d36d	-0.009938103
76	0xbc7dfc17	-0.015501997
77	0xbdcf5cd4	-0.101251274
78	0x3bcf0600	0.006317854
79	0xbdead4a3	-0.114663385
80	0xbd884de3	-0.06655481
81	0xbd0dabe6	-0.034587763
82	0xbbcdaba8	-0.0062765665
83	0x3d79cf4b	0.060988706
84	0x3dbd3b9b	0.092398845
85	0xbd5dd0cb	-0.0541542
86	0xbd520ced	-0.05128186
87	0x3db30efc	0.087430924
88	0x3dbc4201	0.09192277
89	0xbde69a55	-0.11259905
90	0xbdb754b1	-0.089517005
91	0xbde0975b	-0.10966369
92	0xbb4b1b1b	-0.0030991498
93	0xbdd56dab	-0.10421308
94	0x3d9ef2cb	0.07761153
95	0xbdb1c499	-0.08680076
96	0xbe0cb225	-0.13739832
97	0x3ce1793f	0.027523635
98	0x3d8b6404	0.06806186
99	0xbdb0af03	-0.08627131
100	0xbd8b51b7	-0.06802695
101	0xbc04a32d	-0.008095545
102	0x3c745081	0.014911772
103	0xbc5c4275	-0.013443579
104	0xbdcb628c	-0.09930906
105	0xbc4b2882	-0.0123997945
106	0xbd15ff02	-0.036620148
107	0x3d05e54c	0.032689378
108	0x3db8b4b9	0.09018845
109	0x3d66dc69	0.056362543
110	0x3dcf737b	0.10129448
111	0x3d0e0bd3	0.034679245
112	0x3dbf648b	0.09345349
113	0x3c82a04f	0.015945582
114	0x3ba93a28	0.0051644035
115	0x3cf1e055	0.029525915
116	0xbd29f4e3	-0.041493308
117	0xba83e638	-0.0010063117
118	0x3dcdc1e5	0.10046748
119	0x3db76b6f	0.08956038
120	0xbd3ee336	-0.046603404
121	0x3db22cef	0.08699977
122	0xbd307328	-0.04307857
123	0x3c4ddda9	0.012565055
124	0xbdceccdb	-0.10097667
125	0xbd1be3bb	-0.038058978
126	0xbd96c9bd	-0.07362697
127	0xba53ed50	-0.00080843735
128	0x3d4d9c08	0.05019763
129	0x3bf706bc	0.0075386446
130	0x3d9aaca5	0.075524606
131	0x3db6c570	0.08924377
132	0x3c639dcd	0.013892603
133	0x3d66dc4f	0.056362446
134	0xbd0ed65e	-0.034872405
135	0x3d57624e	0.052583985
136	0xbdd94752	-0.106093064
137	0x3d2884ec	0.04114239
138	0xbd11a1fa	-0.035554864
139	0xbd11eb4b	-0.035624783
140	0xbded1aaa	-0.115773514
141	0x3dab7c0c	0.083732694
142	0xbd804019	-0.06262226
143	0x3c973007	0.018455518
144	0x3db67070	0.089081645
145	0xbde25e54	-0.11053148
146	0x3e1001e4	0.14063221
147	0xbdb1a0f6	-0.08673279
148	0xbe11ff68	-0.14257586
149	0x3d801c7d	0.06255434
150	0xbdaafdde	-0.083492026
151	0xbc893050	-0.01674667
152	0x3cfd23d5	0.030900875
153	0xbd83b853	-0.064316414
154	0x3e0b5884	0.13607985
155	0x3d96b595	0.07358853
156	0xbd5f958a	-0.05458597
157	0xbd5f25bd	-0.05447935
158	0xbce1ba0f	-0.02755454
159	0x3d8e92bb	0.0696158
160	0x3cea768c	0.02862098
161	0x3d7df8f5	0.062005002
162	0x3d21333a	0.039355494
163	0x3c294e57	0.010333619
164	0x3d90f93e	0.07078789
165	0x3d2ac4a5	0.04169144
166	0x3db43ce6	0.08800678
167	0x3d6e5016	0.058181845
168	0x3da0cf3b	0.07852026
169	0x3d8462f4	0.06464186
170	0x3db5e8ad	0.0888227
171	0xbb961c06	-0.0045809774
172	0x3df1e442	0.11811115
173	0xbd4762c2	-0.048678167
174	0xbd985cc8	-0.074395716
175	0x3df53595	0.119731106
176	0xbd943741	-0.07237101
177	0x3dd275b2	0.10276355
178	0xbdb04ac7	-0.08608013
179	0x3de13a29	0.10997421
180	0x3d86da30	0.06584585
181	0xbd25f6a9	-0.040518437
182	0xbd26c2f3	-0.04071326
183	0x3de3fc6d	0.11132131
184	0x3cb270b4	0.021782257
185	0x3d803e44	0.06261876
186	0xbd65ebd3	-0.056133103
187	0xbdab0117	-0.08349817
188	0x3e03c601	0.12868501
189	0xbca1c569	-0.019747453
190	0xbc9ab013	-0.018882787
191	0x3d298b83	0.041392814
192	0x3d90c4eb	0.07068809
193	0xbdd33d65	-0.103144445
194	0x3df76237	0.1207928
195	0x3d2063c6	0.03915765
196	0x3d98190d	0.07426653
197	0xbb03677b	-0.0020050693
198	0x3dffa0d3	0.12481847
199	0xbda7fb47	-0.08202224
200	0xbcc62b20	-0.024190485
201	0xbe1d50c0	-0.15362835
202	0x3dca791a	0.098863795
203	0xbcc46020	-0.023971617
204	0x3de372e6	0.111058995
205	0xbdff2d98	-0.12459868
206	0xbdfc3ac8	-0.12315899
207	0x3ddec8ba	0.10878129
208	0xbd8d2f4f	-0.06893789
209	0xbbafc0c3	-0.005363555
210	0xbdca5bb6	-0.09880774
211	0x3d89fbf1	0.06737507
212	0xbe105a3e	-0.14096925
213	0xbcabe660	-0.020983875
214	0xbd61e26c	-0.055147573
215	0x3e2ade57	0.16686378
216	0xbcdc4419	-0.02688794
217	0xbd683f8d	-0.05670123
218	0xbdb4ffc3	-0.08837845
219	0xbd97c547	-0.074106745
220	0x3db32a41	0.08748294
221	0xbdcf34f2	-0.101175204
222	0x3de8ea82	0.11372854
223	0xbe07caaf	-0.13260911
224	0xbe10d3f9	-0.14143361
225	0xbdb07d18	-0.0861761
226	0xbc48d608	-0.01225806
227	0xbda9c893	-0.082902096
228	0xbd7985b8	-0.06091854
229	0x3bd2c343	0.0064319684
230	0x3db61cfb	0.08892246
231	0x3d873123	0.06601169
232	0xbe02e47a	-0.1278247
233	0x3dbddff3	0.092712305
234	0x3db78aba	0.08962007
235	0x3d847d62	0.064692274
236	0xbbd3429f	-0.006447151
237	0x3d8dca8b	0.06923398
238	0x3dee295d	0.11628983
239	0xbdc26cd3	-0.09493413
240	0xbda5a6c6	-0.0808845
241	0xbd4042b0	-0.0469386
242	0x3c9701ca	0.01843347
243	0x3d48ec89	0.049053703
244	0xbe12914f	-0.14313243
245	0x3dd002f9	0.10156817
246	0xbe0b1908	-0.13583767
247	0x3de59323	0.11209705
248	0xbc9d759e	-0.019221123
249	0xbcc59ed1	-0.024123581
250	0x3de62449	0.112373896
251	0x3e20b49f	0.15693901
252	0x3de03c20	0.10948968
253	0xbd24a96b	-0.040200632
254	0xbdc1d737	-0.09464877
255	0x3dc08502	0.09400369

bias_ih_l0 f4 [256]
0	0x3db472e7	0.088109784
1	0x3e062bb7	0.13102613
2	0x3d2bc355	0.04193433
3	0x3ca0319e	0.01955491
4	0xbe039f26	-0.12853679
5	0xbc29af3e	-0.010356722
6	0xbcb7aea3	-0.02242214
7	0x3dfe0ad6	0.124044105
8	0x3d4cb72d	0.049979378
9	0x3de12a04	0.10994342
10	0x3db221d8	0.086978614
11	0xbd8f5880	-0.06999302
12	0xbd48e33d	-0.049044836
13	0x3db4521f	0.08804726
14	0xbc2a7450	-0.010403708
15	0x3de11fb1	0.10992373
16	0x3d87c7a0	0.06629872
17	0x3e098beb	0.1343228
18	0xbdc561de	-0.09637807
19	0x3dde17c0	0.10844374
20	0x3dc6f4ea	0.097146824
21	0xbd338696	-0.043829523
22	0x3d7c51f3	0.06160159
23	0xbdf48472	-0.119393244
24	0xbad2e9a2	-0.0016091357
25	0x3d43b755	0.04778226
26	0x3d00cef5	0.03144737
27	0x3dcd0ff6	0.1001281
28	0xbcb49cf9	-0.022047507
29	0xbcdd2d41	-0.026999118
30	0xbd839e58	-0.06426686
31	0x3da5efcd	0.08102379
32	0xbca8e112	-0.020615134
33	0xbdbd6de2	-0.09249474
34	0x3dac2616	0.08405702
35	0xbc0615fa	-0.008183951
36	0x3b454c70	0.0030105375
37	0x3d5b0983	0.053475868
38	0xbdcabd9a	-0.09899445
39	0x3db5cfcb	0.08877524
40	0xbca6318c	-0.020287298
41	0xbdccf390	-0.10007393
42	0x3dc66f1a	0.0968916
43	0x3d2e796a	0.04259626
44	0x3d2037bd	0.039115656
45	0xbda569e7	-0.0807684
46	0x3d4ba080	0.04971361
47	0x3c1a1c4a	0.009406159
48	0x3e0cc751	0.13747908
49	0x3d6733a7	0.056445744
50	0xbd798885	-0.06092121
51	0xbd2c7d1e	-0.04211151
52	0xbc13350e	-0.008984817
53	0xbd1a8ce7	-0.03773203
54	0xbd1bfd4f	-0.03808337
55	0x3d747ecc	0.059691235
56	0x3ce3c0a9	0.027801828
57	0xbdee113c	-0.11624381
58	0xbdb69a57	-0.08916157
59	0x3d52a452	0.05142624
60	0x3d7efa72	0.062250562
61	0x3d866c22	0.065635934
62	0x3d14cf88	0.03633073
63	0xbd8724cf	-0.065988176
64	0x3d4c44c6	0.049870275
65	0xbcfdf0a1	-0.03099853
66	0xbd4fc8a4	-0.050728455
67	0xbdb4a10c	-0.0881978
68	0xbdfb5ac6	-0.12273173
69	0xbda02cf5	-0.07821075
70	0xbdd427f0	-0.1035918
71	0x3d6e7b45	0.058223028
72	0x3d19f332	0.037585445
73	0x3d112709	0.035437617
74	0xbd613bae	-0.054988556
75	0xbdef99b2	-0.11699237
76	0xbd503c5e	-0.05083882
77	0xbdb52445	-0.088448085
78	0xbda87245	-0.0822492
79	0x3c0b9011	0.008518235
80	0xbd9df2dc	-0.077123374
81	0x3dbb1e3c	0.09136626
82	0xbd6a5783	-0.057212364
83	0x3cc10032	0.023559663
84	0xbca47e16	-0.020079654
85	0x3ce34ac7	0.027745618
86	0x3d3b8dd6	0.045789562
87	0xbdd7e678	-0.10542005
88	0x3d298d66	0.041394614
89	0xbdd4ee46	-0.103970096
90	0x3a279665	0.0006392955
91	0x3d2961fe	0.04135322
92	0x3ca6c9e9	0.02035995
93	0x3d999157	0.074984245
94	0xbd79937c	-0.060931668
95	0x3d8b25f2	0.06794347
96	0x3ccb6a05	0.024830827
97	0xbd082d43	-0.03324629
98	0xbd7370d3	-0.05943377
99	0x3bb67bbe	0.0055689504
100	0x3d6568ab	0.056008022
101	0xbda64a82	-0.0811968
102	0xbd5c7f5c	-0.053832397
103	0x3d2ca583	0.04215003
104	0xbd753f82	-0.05987502
105	0xbdad7bc1	-0.0847087
106	0x3d88ac03	0.06673434
107	0x3d458ac6	0.048228048
108	0xbddd41f4	-0.10803595
109	0xbdae3252	-0.085056916
110	0x3bdf3510	0.0068117455
111	0x3b56364d	0.0032686174
112	0x3ce6dd73	0.028181767
113	0xbd5e57ff	-0.05428314
114	0x3c406e46	0.011745041
115	0x3e058a70	0.13041091
116	0x3ce71e59	0.028212713
117	0x3dd8ec67	0.10591965
118	0x3cf5c0e7	0.02999921
119	0xbaa32e15	-0.0012449647
120	0xbb7f39fd	-0.0038944476
121	0x3d2141e8	0.039369494
122	0xbd817022	-0.06320216
123	0x3c5525d7	0.01300951
124	0x3d6c8add	0.057749618
125	0x3e1e519d	0.1546082
126	0xbcb2a943	-0.021809226
127	0x3d301d13	0.042996477
128	0xbdabc58a	-0.08387287
129	0xbda1f872	-0.07908715
130	0x3c31d63d	0.010854301
131	0xbd7e589a	-0.062096216
132	0x3d1c75b3	0.038198184
133	0x3d76c92a	0.06025044
134	0x3de54b5a	0.11196013
135	0x3c354096	0.011062762
136	0xbd9730ad	-0.07382331
137	0xbdd5b056	-0.10434024
138	0x3c078790	0.008272067
139	0xbc9830f2	-0.018578026
140	0x3d56c33c	0.052432284
141	0xbdc0889f	-0.094010584
142	0xbd711c1e	-0.058864705
143	0xb9d09f5d	-0.00039791586
144	0xbc8ec020	-0.017425597
145	0x3bf52517	0.007481228
146	0xbcff0e91	-0.031134875
147	0x3c70922c	0.014683288
148	0x3dcd5607	0.10026174
149	0xbda0b55f	-0.07847094
150	0x3d42995a	0.04750953
151	0x3d401ace	0.046900563
152	0xbda8ef92	-0.082488194
153	0xbcf40634	-0.029788114
154	0x3bc3d322	0.0059760967
155	0x3dd9f402	0.10642244
156	0x3d018075	0.031616647
157	0xbdf91606	-0.12162404
158	0x3dd42f7b	0.10360619
159	0xbda74335	-0.081671156
160	0xbc960405	-0.018312464
161	0x3dcbc90f	0.09950458
162	0xbd14f82a	-0.03636948
163	0xbcbe62ce	-0.023240473
164	0xbdfde71a	-0.12397595
165	0x3d89588f	0.06706344
166	0x3db03865	0.086045064
167	0xbd17fa7d	-0.03710412
168	0x3d702370	0.058627546
169	0xb976d7b1	-0.0002354074
170	0xbdd78952	-0.10524239
171	0xbd231cc0	-0.03982234
172	0x3d2e37c3	0.042533647
173	0x3dd31e7a	0.10308547
174	0x3dae2de9	0.085048504
175	0xbd4f42ce	-0.05060082
176	0xbd121fc1	-0.035674814
177	0xbca29458	-0.019846126
178	0xbb2d584b	-0.0026450332
179	0xbdf50fb3	-0.11965885
180	0xbd19137f	-0.03737211
181	0xbd1b0a55	-0.03785165
182	0xbdb4ed06	-0.08834271
183	0x3d03a8ca	0.03214339
184	0x3dd478ee	0.10374628
185	0x3c42f75c	0.011899795
186	0x3b5e9b03	0.0033966906
187	0x3dbc6e76	0.09200756
188	0xbcdb1055	-0.026741186
189	0xbde1cbb0	-0.110251784
190	0x3dd8d881	0.1058817
191	0xbd8e5ee2	-0.06951691
192	0xbdcc83e1	-0.099860914
193	0xbb0084b3	-0.0019610345
194	0x3da89dd7	0.082332306
195	0x3dc5e8d4	0.09663549
196	0xbdb067bc	-0.08613536
197	0x3da099c6	0.0784183
198	0x3d84c414	0.064827114
199	0x3deb6d5e	0.114954695
200	0xbda0cdc0	-0.07851744
201	0x3e07c289	0.13257803
202	0x3dabc2eb	0.08386787
203	0x3a731dda	0.00092741626
204	0xbd873e8d	-0.066037275
205	0xbca85647	-0.020548953
206	0xbd4d6833	-0.0501482
207	0x3c9d84a3	0.019228285
208	0x3dc32744	0.09528974
209	0xbd641d1c	-0.055691823
210	0x3dbfbc43	0.0936208
211	0x3de4cbc2	0.11171676
212	0xbe08899a	-0.13333741
213	0xbd029578	-0.031880826
214	0xbd62a6c9	-0.05533484
215	0xbdd2add0	-0.10287058
216	0x3e06d033	0.13165359
217	0x3de4a411	0.11164106
218	0x3cce4608	0.025179878
219	0x3c86930e	0.016427543
220	0x3cb6410d	0.022247816
221	0xbb9c3b18	-0.0047677867
222	0x3da6188f	0.08110153
223	0xbdeac7ec	-0.11463913
224	0xbd626f6e	-0.05528205
225	0x3d8ad63c	0.06779143
226	0xbda09205	-0.07840351
227	0x3da5bf68	0.080931485
228	0x3d1f03d6	0.038822018
229	0x3cdba11c	0.026810221
230	0x3db8e07c	0.09027192
231	0x3bb7dd78	0.005611118
232	0x3df99f24	0.12188557
233	0xbd8b3241	-0.067966945
234	0xbdbb2f86	-0.09139924
235	0x3d92844b	0.07154139
236	0x3e005cf1	0.12535454
237	0xbc9cb895	-0.019130984
238	0xbcc2861f	-0.023745595
239	0x3d5f4ab7	0.054514613
240	0x3cf7932b	0.030221542
241	0x3de76d31	0.113001235
242	0x3ddb23e4	0.10700205
243	0x3dc64181	0.09680463
244	0x3de55b3a	0.11199041
245	0x3d433602	0.047658928
246	0xbdd14f9b	-0.10220262
247	0xbb879ff4	-0.004138941
248	0x3de85945	0.11345152
249	0x3daee963	0.08540609
250	0x3e093b47	0.13401519
251	0xbcc93af3	-0.024564242
252	0x3d88548f	0.06656753
253	0x3dd0e8b4	0.102006346
254	0x3d8f0e52	0.06985153
255	0xbced212b	-0.02894648

bias_hh_l0 f4 [256]
0	0xbc7524d4	-0.014962394
1	0x3da5d30f	0.08096897
2	0xbd35d730	-0.044394672
3	0x3da53906	0.08067517
4	0xbdccde74	-0.10003367
5	0x3de2bac5	0.1107078
6	0x3dcea4be	0.10090016
7	0x3c0e27f3	0.008676517
8	0x3d8e15eb	0.06937774
9	0xbda15e94	-0.078793675
10	0x3de90a02	0.11378862
11	0xbc8ca260	-0.01716727
12	0xbdf01cef	-0.11724269
13	0xbda076a9	-0.07835133
14	0x3d4c050b	0.049809497
15	0xbdc685d9	-0.09693498
16	0x3df8142f	0.12113225
17	0xbd471d6b	-0.04861204
18	0xbcac7e69	-0.02105637
19	0xbda6de54	-0.081478745
20	0xbde2af2e	-0.11068569
21	0xbd270b0a	-0.040782012
22	0xbdbfd118	-0.09366053
23	0x3d9b666a	0.07587893
24	0xbd35bd2c	-0.04436986
25	0x3cf276b9	0.029597627
26	0xbd9b5946	-0.07585387
27	0xbcff2046	-0.031143319
28	0x3ce053e9	0.027383761
29	0x3dfde218	0.123966396
30	0xbdb56ca3	-0.088586114
31	0xbdb0990d	-0.08622942
32	0xbdc62284	-0.09674552
33	0xbcb42090	-0.021988183
34	0x3e0f2c49	0.13981737
35	0xbdeb127c	-0.11478135
36	0x3cc68cba	0.024237026
37	0x3c24812f	0.010040565
38	0xbdc302d2	-0.09522022
39	0x3e0d41c8	0.13794625
40	0xbb3b6347	-0.002859311
41	0x3cf444f3	0.029818034
42	0x3dda62be	0.10663365
43	0x3d50b18a	0.050950564
44	0xbdba1fd5	-0.09088103
45	0xbdb89835	-0.09013406
46	0xbd193c34	-0.03741093
47	0xbd1e4ce9	-0.038647566
48	0x3d9cc655	0.07655016
49	0xbd09a7ec	-0.03360741
50	0xbd867382	-0.06565
51	0xb9a329b0	-0.00031120842
52	0xbb9d2e5f	-0.0047967876
53	0xbd7130ff	-0.058884617
54	0x3a9f050e	0.0012132244
55	0xbb990cd8	-0.0046707205
56	0x38c4a184	9.376093e-05
57	0xbdb9714a	-0.09054811
58	0x3c600f11	0.013675467
59	0x3c677e3c	0.014129218
60	0xbc9a42e5	-0.018830726
61	0xbd5125b7	-0.05106136
62	0xbc6333f7	-0.01386737
63	0x3da398f1	0.07988156
64	0x3d6514a6	0.055927895
65	0x3d9249d6	0.07142989
66	0x3dfcd6e5	0.123456754
67	0xbce8adf1	-0.028403254
68	0x3dcf9a58	0.101368606
69	0xbc9c2753	-0.01906172
70	0x3d86950f	0.065713994
71	0x3ba6b7d7	0.0050878334
72	0x3a5ad347	0.0008347523
73	0x3d4b61b0	0.04965371
74	0x3dfa172b	0.1221145
75	0xbdde0462	-0.1084068
76	0xbdf05dba	-0.11736627
77	0xb94a6fa0	-0.00019305805
78	0x3de072b5	0.10959379
79	0x3afbc690	0.0019208957
80	0xbdd2e498	-0.10297507
81	0xbda431d0	-0.080173135
82	0xbd39830b	-0.045290988
83	0x3d61e8fd	0.055153836
84	0xbd7ce1d5	-0.061738808
85	0xbdf04501	-0.117319115
86	0xb9ef430a	-0.0004563558
87	0x3d6c1a1f	0.0576421
88	0xbde8568e	-0.11344634
89	0x3df91ac4	0.12163308
90	0x3db682ba	0.08911653
91	0x3afd94af	0.0019346679
92	0xbcd64327	-0.026155068
93	0x3d1a0e7f	0.03761148
94	0xbdc624cc	-0.09674987
95	0xbd9398df	-0.07206892
96	0xbcaecf52	-0.021339092
97	0xbd731af3	-0.059351873
98	0x3d12e0e2	0.035858996
99	0x3d862692	0.065503255
100	0xbc5f862d	-0.01364283
101	0x3d1e3b72	0.03863091
102	0xbdb16e92	-0.08663668
103	0xbc3e4f90	-0.011615649
104	0xbc85aaa6	-0.016316723
105	0xbd46a07d	-0.048492897
106	0xbdfc657f	-0.12324046
107	0x3c62cda4	0.013842974
108	0xbde2b042	-0.11068775
109	0xbda09e7a	-0.07842727
110	0xbd79ae30	-0.060957134
111	0x3d236db2	0.039899535
112	0xbdc23a6c	-0.09483799
113	0xbbae74ff	-0.0053240056
114	0xbc9a2fac	-0.01882156
115	0xbdc5cc23	-0.096580766
116	0xbd430743	-0.047614347
117	0x3da9e989	0.082964964
118	0xbc0eabd3	-0.008707958
119	0xbd9560f7	-0.07293885
120	0x3d30b0e6	0.043137453
121	0x3dd69d51	0.104792245
122	0xbc36f9c2	-0.011167945
123	0xbdd4e924	-0.103960305
124	0x3dc3f2bf	0.095677845
125	0x3ddaf6d5	0.10691611
126	0x3d857739	0.065168805
127	0x3c2caa13	0.010538596
128	0x3b734e13	0.0037125393
129	0xbc437bd0	-0.011931375
130	0x3d5f66a7	0.054541256
131	0x3bac5828	0.0052595325
132	0xbdcbf54c	-0.09958896
133	0x3df4765e	0.11936639
134	0xbd11e5a3	-0.03561939
135	0x3d8797f0	0.06620777
136	0xbd3987fb	-0.045295697
137	0x3d982542	0.07428981
138	0xbd3e321f	-0.046434518
139	0xbdb90e52	-0.090359345
140	0x3db4d7f9	0.08830256
141	0x3d980681	0.074231155
142	0xbdacd246	-0.08438544
143	0xbd168880	-0.03675127
144	0x3d26723f	0.040636297
145	0x3dc9a859	0.09846563
146	0x3a5730c2	0.00082088646
147	0x3d1b7679	0.03795478
148	0xbdbc5297	-0.0919544
149	0x3d5b2a40	0.05350709
150	0x3db5f3df	0.08884405
151	0xbc3a27ac	-0.011361998
152	0x3d1e4839	0.038643096
153	0xbdc89b1c	-0.0979521
154	0x3d13aea5	0.036055226
155	0xbdabb622	-0.083843485
156	0x3de5ae14	0.112148434
157	0xbd04aed0	-0.032393277
158	0xbde99bcf	-0.11406671
159	0xbdc388a7	-0.09547549
160	0xbd9158e4	-0.07097033
161	0xbc2039e9	-0.009779432
162	0x3c6ba3c5	0.014382307
163	0xbdddb55e	-0.10825609
164	0xbdf93d50	-0.121698976
165	0xbdac157f	-0.084025376
166	0xbd95694d	-0.07295475
167	0xbd65ef89	-0.05613664
168	0xbd04d5f4	-0.032430604
169	0x3c5dd3ee	0.0135392975
170	0x3dcfd52e	0.10148083
171	0x3dc8facb	0.0981346
172	0xbd8cb3da	-0.068702415
173	0xbd86d927	-0.06584387
174	0x3dda359d	0.10654757
175	0x3dae040f	0.08496868
176	0x3d052b07	0.032511737
177	0xbc93d596	-0.018046182
178	0xbc436a63	-0.01192722
179	0x3d8a1263	0.06741788
180	0xbde915a1	-0.113810785
181	0xbbe00b2d	-0.0068372698
182	0x3d2eb0f7	0.042649236
183	0x3da7ac32	0.081871405
184	0x3b916444	0.0044370014
185	0x3de56384	0.11200622
186	0x3da1ed0a	0.0790654
187	0xbd903634	-0.070415884
188	0x3df6fdcd	0.120601274
189	0x3dbe11ee	0.092807636
190	0x3da750af	0.08169686
191	0x3db064cb	0.08612975
192	0x3d8ffba1	0.07030416
193	0xbdb4ade5	-0.0882223
194	0xbd26473a	-0.04059527
195	0xbd67f22d	-0.05662744
196	0xbc830813	-0.015995061
197	0xbdd3e39a	-0.10346146
198	0x3dfc5348	0.12320572
199	0xbd3843fe	-0.044986717
200	0x3c852b47	0.016255988
201	0x3e1073dc	0.14106697
202	0x3d77685d	0.060402263
203	0xbc8347c8	-0.016025439
204	0x3d2416f0	0.040060937
205	0xbd8f64e1	-0.07001663
206	0xbd47aea7	-0.048750546
207	0xbd9e3bae	-0.07726227
208	0xbd68c1c6	-0.05682542
209	0x3dcc4ea1	0.09975935
210	0xbd4a9a75	-0.049463708
211	0x3d637229	0.055528793
212	0x3cb9908c	0.022651933
213	0xbd43101f	-0.047622796
214	0x3de37bcf	0.11107599
215	0x3b02d683	0.0019964285
216	0x3dc4d432	0.096107855
217	0x3d5693ef	0.052387174
218	0x3c19fe50	0.009399012
219	0xbdb8945a	-0.09012671
220	0x3cd10c21	0.025518479
221	0x3d7de4cb	0.061985772
222	0x3d84e46d	0.06488881
223	0x3d94298a	0.072344854
224	0x3df75f80	0.12078762
225	0x3dbe2f5a	0.09286375
226	0xbd192479	-0.0373883
227	0xbd85c199	-0.065310664
228	0x3e062108	0.13098538
229	0x3d5b3729	0.0535194
230	0xbd24280b	-0.04007725
231	0x3cc82cb8	0.024435386
232	0xbddddbcc	-0.108329386
233	0x3dcf4df5	0.10122291
234	0xbc4f855b	-0.012666072
235	0x3de84d99	0.113429256
236	0x3d8b3818	0.067978084
237	0xbe08cbdb	-0.13359015
238	0x3d8f00e7	0.06982594
239	0xbcdf6ca7	-0.02727349
240	0x3db2085f	0.08693003
241	0xbccde10d	-0.025131727
242	0xbd1c829e	-0.038210504
243	0xbd66fd6d	-0.05639403
244	0x3dc9c432	0.098518744
245	0x3d7b21e3	0.061311614
246	0xbdd30ea7	-0.10305529
247	0x3daa007a	0.08300872
248	0x3d98dd1d	0.07464049
249	0x3d505f81	0.05087233
250	0xbda4690c	-0.080278486
251	0x3d5f76b6	0.05455657
252	0x3d86d2a7	0.065831475
253	0x3de3935b	0.1111209
254	0xbda74df0	-0.08169162
255	0xbda944a4	-0.08265045

weight_ih_l1 f4 [256, 64]
0	0xbd1e65cf	-0.03867131
1	0x3b65d3a5	0.0035068777
2	0x3d960a82	0.07326223
3	0xbd28d679	-0.041220162
4	0xbd4bead8	-0.04978451
5	0x3d36cf77	0.044631448
6	0x3d070457	0.032963123
7	0xbda4bf99	-0.08044357
8	0x3db25b9f	0.087088816
9	0x3d9eeb8e	0.07759772
10	0x3d5c81fd	0.053834904
11	0x3e072e83	0.13201337
12	0xbd7b7dd4	-0.061399296
13	0x3d12e52f	0.035863098
14	0x3db78a7a	0.08961959
15	0x3d53eb53	0.051738095
16	0xbc9ddcbf	-0.019270299
17	0x3de8f524	0.11374882
18	0xbda950f0	-0.08267391
19	0x3e019c8a	0.12657371
20	0xbd9e140d	-0.07718668
21	0x3d8fe841	0.07026721
22	0x3bc97b57	0.0061487365
23	0x3d4e2ddf	0.050336715
24	0xbc84644f	-0.016161112
25	0xbc9036cf	-0.01760426
26	0x3c8f4f0d	0.017493749
27	0x3dfb75d4	0.12278333
28	0xbddda5a1	-0.10822607
29	0xbcdc724d	-0.026909972
30	0x3dd63393	0.10459056
31	0x3ccdc10d	0.025116468
32	0xbdbdf26b	-0.09274753
33	0x3d92170c	0.07133302
34	0xbc8ec973	-0.017430043
35	0xbd0e40d4	-0.034729794
36	0xbd04ec6e	-0.03245204
37	0x3db0ad67	0.08626824
38	0x3d15311b	0.036423784
39	0x3d62618b	0.055268805
40	0x3bb5c937	0.0055476683
41	0x3da185fe	0.07886885
42	0xbc007037	-0.007839254
43	0x3c3ec567	0.011643744
44	0xbcf49bd3	-0.029859459
45	0x3c6e596a	0.014547685
46	0x3c4b9b48	0.012427159
47	0xb8b11007	-8.443003e-05
48	0x3d2dee64	0.042463675
49	0xbcec475d	-0.028842622
50	0xbdd27edb	-0.10278102
51	0xbd907395	-0.070532955
52	0x3d91af7a	0.071135476
53	0x3e015445	0.12629803
54	0xbd79c24e	-0.06097632
55	0xbbd5362b	-0.0065067015
56	0xbd5e5647	-0.0542815
57	0x3da4a00b	0.08038338
58	0xbdff4ddf	-0.124660246
59	0x3dc8cfe0	0.09805274
60	0x3d07c8c1	0.03315044
61	0x3dc92209	0.09820945
62	0xbb81857c	-0.00395268
63	0x3dacb461	0.08432842
64	0xbdd827b7	-0.1055445
65	0x3d5b0d65	0.05347957
66	0x3d326bb3	0.04355974
67	0xbdbaabd5	-0.091148056
68	0xbba8fa0c	-0.005156761
69	0xbde61c68	-0.11235887
70	0xbd06f322	-0.032946713
71	0x3d88223c	0.06647155
72	0x3d2528e1	0.04032219
73	0x3d9dd454	0.07706514
74	0x3dc2923e	0.0950055
75	0x3dddc7d6	0.10829131
76	0x3dcca9d8	0.099933326
77	0x3d4217a6	0.047385834
78	0xbce8ee65	-0.028433988
79	0xbdba1fa4	-0.09088066
80	0xbc716043	-0.014732423
81	0x3d8ee463	0.06977155
82	0xbb9bd4f6	-0.0047556115
83	0x3d997f08	0.074949324
84	0x3ca5bf45	0.020232806
85	0x3ced2b87	0.02895142
86	0xbd858136	-0.06518786
87	0x3da62600	0.08112717
88	0xbcb90196	-0.022583764
89	0xbcc9d753	-0.024638807
90	0x3d23a439	0.039951537
91	0xbdaf4255	-0.08557574
92	0xbd00e271	-0.03146595
93	0xbd60a2b2	-0.05484266
94	0x3d77e978	0.060525388
95	0xbd692fc7	-0.05693033
96	0x3cb43d58	0.022001907
97	0x3c11eb18	0.008906148
98	0xbd5667d2	-0.052345105
99	0xbd12a4b4	-0.035801604
100	0x3d9feda9	0.07809002
101	0xbda04516	-0.07825677
102	0x3e0922b9	0.13392152
103	0x3d5d9951	0.054101292
104	0x3ceddda5	0.029036352
105	0x3cfe7137	0.031059844
106	0xbda95ca8	-0.08269626
107	0x3c2a37f7	0.01038932
108	0x3dac6470	0.084175944
109	0x3d7c4c60	0.061596274
110	0xbdc2e51b	-0.09516355
111	0xbd0e1e4c	-0.034696862
112	0xbde6ad07	-0.11263471
113	0xbd1300df	-0.035889503
114	0xbc69f29a	-0.014279032
115	0x3dcb43dd	0.09925053
116	0x3da244b7	0.079232626
117	0x3dbbb006	0.09164433
118	0x3d88dcdb	0.0668275
119	0x3dca4afe	0.09877585
120	0x3d8ec953	0.06971993
121	0xbd90b06e	-0.07064901
122	0xbd9c6560	-0.07636523
123	0xbd11add8	-0.03556618
124	0xbd2fbfee	-0.042907648
125	0xbdc55129	-0.09634621
126	0x3d8e8e53	0.0696074
127	0x3d90a5be	0.07062863
128	0x3da3bcdb	0.07995006
129	0xbcbf79f8	-0.023373589
130	0x3daf8cd5	0.085717835
131	0xbd873cb7	-0.06603377
132	0x3dad9e91	0.0847751
133	0xbd3e8bf3	-0.046520185
134	0xbd926a6d	-0.07149205
135	0x39ba125e	0.0003549037
136	0x3d824532	0.06360854
137	0x3d8c0dd1	0.06838573
138	0xbd4d7022	-0.050155766
139	0xbdacb515	-0.08432976
140	0xbc443466	-0.011975383
141	0xbdc038ee	-0.093858585
142	0xbd8d0739	-0.06886143
143	0x3df249b5	0.11830465
144	0xbd59bdc4	-0.05315949
145	0xbc05e9c0	-0.008173406
146	0xbdb362ea	-0.08759101
147	0x3c8ee981	0.017445328
148	0xbd30c6ed	-0.04315846
149	0x3cc8ae88	0.024497285
150	0x3dcfdd12	0.10149588
151	0xbdf9bf04	-0.121946365
152	0x3d62b68d	0.055349875
153	0x3ba64031	0.00507357
154	0x3de710a4	0.11282471
155	0xbd9d336b	-0.07675823
156	0x3d402a8e	0.046915583
157	0xbd366d60	-0.044537902
158	0x3da8a415	0.08234421
159	0xbd930f92	-0.07180704
160	0xbded1260	-0.115757704
161	0x3dc3ae83	0.0955477
162	0xbb1c419e	-0.0023842822
163	0x3d5855e9	0.052816305
164	0x3d2310b0	0.039810836
165	0x3c7c6ba4	0.015406523
166	0x3d77011a	0.060303785
167	0xbe01a5fd	-0.12660976
168	0xbd1b2cb3	-0.037884425
169	0xbd4dc6d9	-0.050238464
170	0xbc4701b5	-0.012146403
171	0xbcdf471b	-0.027255585
172	0x3d819fc9	0.06329305
173	0x3d031f01	0.03201199
174	0x3dcc5ec6	0.09979014
175	0x3ce41bcf	0.027845291
176	0x3dacc131	0.08435286
177	0x3c7ff3d3	0.015622097
178	0x3c9afcec	0.01891943
179	0xbd14343b	-0.036182623
180	0xbd56dce8	-0.052456766
181	0x3dc30471	0.095223315
182	0xbd617ac6	-0.055048726
183	0xbd79d357	-0.060992565
184	0xbceeea0e	-0.02916434
185	0xbba3ea8d	-0.005002326
186	0x3d8e4be7	0.06948071
187	0xbae2038e	-0.0017243491
188	0x3dc77f31	0.09741057
189	0x3c8a3ce2	0.016874734
190	0xbd871793	-0.06596293
191	0xbe05e8ce	-0.13077089
192	0x3b5208e3	0.0032048754
193	0x3df67771	0.120345004
194	0xbc7aeae1	-0.015314789
195	0x3cfd45f8	0.030917153
196	0x3e019301	0.12653734
197	0x3d3e9cbb	0.04653619
198	0xbdb11394	-0.08646312
199	0x3d461153	0.048356365
200	0xbdc35a39	-0.09538693
201	0xbb5816fb	-0.0032972682
202	0xbd8f4699	-0.06995887
203	0x3dc990a8	0.09842044
204	0xbdbce74c	-0.09223804
205	0x3d160be1	0.036632422
206	0x3db0da02	0.08635332
207	0x3bf310fd	0.0074177966
208	0x3db94e35	0.0904812
209	0xbdd83a53	-0.105579995
210	0xbd5f81c8	-0.05456713
211	0xbde1ae3e	-0.11019562
212	0xbc27c683	-0.0102402
213	0xbd7805a4	-0.060552254
214	0xbc479042	-0.01218039
215	0x3dddc4a6	0.10828523
216	0x3dcd182d	0.10014377
217	0xbd94098b	-0.07228383
218	0xbd137987	-0.03600457
219	0x3dc58fb9	0.096465535
220	0xbdeb8f7f	-0.11501979
221	0x3dabb0ab	0.08383306
222	0x3dd7709a	0.10519524
223	0xbdd84a85	-0.105610885
224	0xbe0772ee	-0.13227436
225	0xbca7f641	-0.020503165
226	0x3d51b3f7	0.05119702
227	0x3df22194	0.11822811
228	0x3ddcf504	0.107889205
229	0x3ddb3671	0.10703743
230	0xbcf12522	-0.029436652
231	0x3c6ddb50	0.01451762
232	0x3bde70d8	0.0067883544
233	0xbdb6c945	-0.08925108
234	0x3d9988a7	0.074967675
235	0xbdc3deda	-0.0956399
236	0x3b930599	0.0044867513
237	0xbdb93c9f	-0.09044766
238	0xbdde1ac9	-0.108449526
239	0xbcb824ae	-0.022478428
240	0xbddb0848	-0.10694939
241	0xbe035f7f	-0.12829398
242	0x3ce50c53	0.027959978
243	0xbda3a913	-0.07991233
244	0x3d931cf8	0.0718326
245	0x3cd2e9e4	0.025746293
246	0x3db9398c	0.09044179
247	0x3d4627c7	0.04837778
248	0xbd1959b2	-0.037439056
249	0x3dea9cb4	0.1145567
250	0x3de9e860	0.11421275
251	0x3dcc9832	0.099899665
252	0x3c2a5a34	0.010397483
253	0xbc487d96	-0.012236973
254	0x3de461e5	0.111514844
255	0xbdf12119	-0.11773891

weight_hh_l1 f4 [256, 64]
0	0xbda78f48	-0.081816256
1	0xbe058d77	-0.13042246
2	0xbcb9fd73	-0.022703862
3	0xbcd587fc	-0.026065819
4	0xbc03025d	-0.007996169
5	0xbd815749	-0.063154764
6	0x3d581f0c	0.052763984
7	0x3e025cdb	0.12730734
8	0x3dc7288c	0.097245306
9	0x3de4426b	0.11145481
10	0x3dedfcc6	0.11620478
11	0xbdd1ede6	-0.10250454
12	0x3dce4961	0.1007259
13	0xbd96529c	-0.07339975
14	0xbd283391	-0.041064803
15	0x3dd3498f	0.103167646
16	0x3cd198ca	0.02558555
17	0xbde927c8	-0.11384541
18	0xbd99d04e	-0.07510434
19	0xbca42693	-0.020037925
20	0xbe087454	-0.13325626
21	0x3de4e692	0.1117679
22	0xbdb8aa43	-0.0901685
23	0xbc784357	-0.015152774
24	0x3df1b52d	0.11802135
25	0x3c5e616e	0.013573034
26	0x3c4843c6	0.01222319
27	0xbd80fef6	-0.0629863
28	0x3de5d014	0.112213284
29	0xbc5585a6	-0.013032353
30	0x3e0b2a3d	0.13590331
31	0xbcb01aca	-0.021497149
32	0x3da6de06	0.08147816
33	0xbdef5c71	-0.11687554
34	0x3d57c74b	0.052680295
35	0x3d4738a4	0.048638
36	0x3d214796	0.03937491
37	0xbcf374f1	-0.029718848
38	0xbc600beb	-0.013674716
39	0x3c9076c5	0.017634759
40	0xbd63cb07	-0.055613544
41	0xbd4159fa	-0.04720495
42	0x3bc3b7d1	0.0059728404
43	0xbdce857f	-0.10084056
44	0x3d9d24c8	0.07673031
45	0x3d971709	0.073774405
46	0xbc678202	-0.014130117
47	0x3d811de0	0.06304526
48	0x3ddc937f	0.1077032
49	0x3b529fe4	0.003213876
50	0xbd3952ff	-0.045245167
51	0x3da58dc1	0.08083678
52	0x3bf12e7d	0.007360278
53	0xbd8236b8	-0.06358093
54	0xbb1c1b80	-0.0023820102
55	0x3ddb2de7	0.107021146
56	0xbdce75c5	-0.100810565
57	0xbd903259	-0.07040853
58	0xbd038b16	-0.032115065
59	0xbcbdb97b	-0.023159733
60	0xbdac7844	-0.08421376
61	0x3d7e54e5	0.06209268
62	0xbc3a464f	-0.011369302
63	0x3b473bc6	0.0030400618
64	0xbd141520	-0.03615296
65	0xbc71f730	-0.014768407
66	0xbc4a7c03	-0.012358668
67	0xbd4bcaf9	-0.049754117
68	0x3d878efb	0.06619068
69	0xbd837b1c	-0.064199656
70	0x3dfbccda	0.12294932
71	0x3d035bc3	0.032069933
72	0x3dfd6c27	0.12374144
73	0x3cbc2600	0.022967339
74	0xbcd7b7b3	-0.026332712
75	0xbd170f16	-0.03687962
76	0xbe094206	-0.13404092
77	0x3d5dfba8	0.054195076
78	0xbdd0f56f	-0.10203063
79	0x3dc2db4b	0.09514483
80	0xbdc97e43	-0.09838536
81	0xbc4f0c41	-0.012637199
82	0xbda64602	-0.08118822
83	0x3d9461fa	0.0724525
84	0xbd9f18f0	-0.07768428
85	0x3ce192cb	0.027535817
86	0x3de1a6af	0.110181205
87	0xbc1b0472	-0.009461509
88	0xbd23db5e	-0.040004127
89	0x3cfb11db	0.030648163
90	0x3cf86c4d	0.03032508
91	0x3c848f7e	0.016181704
92	0xbd8e59c2	-0.06950714
93	0x3c0c0321	0.008545668
94	0x3de40645	0.11134008
95	0x3d38ff2f	0.045165237
96	0xbd3495c8	-0.044088155
97	0x3ddb6f6b	0.10714611
98	0xbdf017a5	-0.1172326
99	0xbd72948a	-0.05922369
100	0xbd31a206	-0.04336741
101	0x3d81719d	0.06320498
102	0x3da9f2cf	0.08298265
103	0x3de1c9a8	0.11024791
104	0x3e029942	0.12753776
105	0x3c56c6d7	0.013108931
106	0x3ce7951b	0.028269341
107	0x3ca1fb05	0.019773016
108	0x3da0fab4	0.07860318
109	0xbd28c611	-0.041204516
110	0xbddc30e3	-0.10751512
111	0x3cdfab45	0.027303347
112	0xbcf89646	-0.030345093
113	0xbd943a79	-0.07237715
114	0xbd268292	-0.040651865
115	0xbd775c5a	-0.060390808
116	0xbdd52ac6	-0.10408549
117	0xbd979b39	-0.07402653
118	0xbc939c24	-0.01801879
119	0xbd4ab4b5	-0.049488742
120	0x3d25f867	0.040520098
121	0xbc7b6a4f	-0.01534517
122	0x3c8a4a5f	0.016881166
123	0x3de22db3	0.11043873
124	0x3e0a3166	0.13495407
125	0x3d3c6bf3	0.046001386
126	0x3cf19693	0.029490745
127	0xbdcdf324	-0.10056141
128	0xbdfe5eae	-0.124204025
129	0xbd728140	-0.059205294
130	0xbc9a48d5	-0.018833557
131	0x3dadecc1	0.08492423
132	0x3d8714d0	0.065957665
133	0x3c6cdb36	0.014456561
134	0xbd4a9bd6	-0.049465023
135	0xbd12066a	-0.03565065
136	0xbd983f5d	-0.074339606
137	0xbdf93aac	-0.12169394
138	0x3c77e1b2	0.015129494
139	0xbcb56428	-0.022142485
140	0xbd0634f2	-0.032765336
141	0x3d79bd65	0.060971636
142	0xbdc656c5	-0.09684519
143	0xbc2e607a	-0.010643119
144	0xbd4c6044	-0.049896494
145	0x3c67b871	0.014143095
146	0x3c5c074f	0.013429477
147	0x3c97a28f	0.018510131
148	0x3d65414e	0.055970483
149	0x3d9fba80	0.07799244
150	0x3d6273e3	0.0552863
151	0x3d4c3f34	0.049864963
152	0xbda501b5	-0.08056966
153	0xbcbf92c9	-0.023385422
154	0x3dc8370a	0.09776123
155	0xbd078065	-0.03308143
156	0xbcc6d194	-0.024269857
157	0x3d16f275	0.03685232
158	0x3dd84e8f	0.10561859
159	0x3c502453	0.012703973
160	0xbb81ff08	-0.0039671697
161	0x3da09e7b	0.07842728
162	0xbdafda83	-0.085866
163	0xbe0ba626	-0.136376
164	0xbd109322	-0.035296567
165	0xbc563908	-0.013075121
166	0x3dbb56a8	0.09147388
167	0xbd92e1a1	-0.071719415
168	0x3d14162c	0.036153957
169	0xbd53a6ea	-0.051672854
170	0xbdd19aa2	-0.10234572
171	0x3d9b4747	0.075819544
172	0xbdd7c4e3	-0.105356
173	0xbd23f08a	-0.040024318
174	0x3dc59df6	0.09649269
175	0x3c88af07	0.016685022
176	0xbce3e225	-0.027817795
177	0xbdd4b163	-0.10385396
178	0xbd8d587a	-0.06901641
179	0xbcc756b0	-0.024333328
180	0x3da01d25	0.07818059
181	0x3d9b7883	0.07591345
182	0xbcd5df88	-0.026107565
183	0x3d67a871	0.056557123
184	0x3d761797	0.06008109
185	0xbd946e30	-0.07247579
186	0xbd109e45	-0.035307188
187	0x3d7b83ee	0.061405115
188	0x3c280089	0.010254034
189	0x3ca85c86	0.020551931
190	0xbc57a693	-0.013162273
191	0xbdb47faa	-0.088134125
192	0x3d0cf25c	0.03441082
193	0x3d976fa6	0.07394342
194	0xbdc886fb	-0.097913705
195	0xbd8f2c1f	-0.06990837
196	0x3d95607c	0.072937936
197	0x3b8dcb46	0.0043272106
198	0xbd889582	-0.06669141
199	0xbdd4b181	-0.10385419
200	0x3dc1c7d9	0.09461946
201	0x3c879993	0.016552722
202	0xbd135a0a	-0.03597454
203	0xbdfb6e3f	-0.12276887
204	0x3dd3e0a6	0.10345583
205	0x3de7a1e9	0.11310179
206	0x3d7dff45	0.062011022
207	0xbda22cc4	-0.079186946
208	0xbde2539f	-0.11051106
209	0xbd02f91f	-0.03197586
210	0x3dd7f018	0.10543841
211	0xbd2106d1	-0.03931314
212	0xbdf974be	-0.1218047
213	0x3bf9526f	0.007608704
214	0x3d4e30c8	0.05033949
215	0x3a436182	0.00074531895
216	0x3d592dca	0.053022183
217	0xbd8ee023	-0.069763444
218	0x3cdffe8c	0.027343057
219	0xbd4f7d55	-0.050656635
220	0x3d80c55c	0.06287643
221	0xbdc54eed	-0.096341945
222	0x3d26865c	0.04065548
223	0x3d61b640	0.055105448
224	0x3cf2a193	0.02961806
225	0xbd267f01	-0.040648464
226	0xbdee05b5	-0.11622182
227	0x3dcfdf8b	0.10150059
228	0x3d6b64bc	0.057469115
229	0x3db98559	0.09058637
230	0xbd22ca6e	-0.039743833
231	0xbd067b0f	-0.0328322
232	0x3d76bb5e	0.06023728
233	0x3c96f1c7	0.018425835
234	0x3cb06590	0.021532804
235	0xbdc900d5	-0.09814612
236	0xbdd4e7f9	-0.10395808
237	0xbdf8a96c	-0.1214169
238	0x3d895016	0.06704728
239	0x3da55a1a	0.08073826
240	0xbda7969e	-0.08183025
241	0xbdced4aa	-0.10099156
242	0x3bcc2c56	0.006230871
243	0x3bc4ad5a	0.0060021104
244	0x3d55330d	0.05205064
245	0xbce1b6e6	-0.027553033
246	0x3d2b2bc0	0.04178977
247	0x3db291e6	0.08719234
248	0xbdac0213	-0.08398833
249	0xbd22e156	-0.03976568
250	0xbceb3af7	-0.02871464
251	0x3db9a65f	0.09064936
252	0xbdbffa6f	-0.09373938
253	0xbda1e439	-0.07904858
254	0xbd9b2247	-0.07574897
255	0x3de0f8af	0.10984933

bias_ih_l1 f4 [256]
0	0xbdc70d62	-0.097193494
1	0xbd795452	-0.06087143
2	0x3cffc827	0.03122337
3	0x3dccf2ff	0.10007285
4	0x3c67882e	0.014131589
5	0x3d93b144	0.07211545
6	0xbd33cb52	-0.043895073
7	0xb806fbdd	-3.2182656e-05
8	0x3de1531b	0.11002179
9	0x3dc3076e	0.095229015
10	0x3dee365f	0.11631464
11	0x3c501180	0.012699485
12	0xbd58c6e2	-0.052924044
13	0x3d0bb6b1	0.034109775
14	0x3dce2cf3	0.10067167
15	0x3d3ccb56	0.046092354
16	0xbdebbf8e	-0.115111455
17	0xbda2342e	-0.07920109
18	0x3c977a3f	0.018490909
19	0x3cececc9	0.028921502
20	0xbd93145d	-0.07181618
21	0xbde11382	-0.10990049
22	0x3c947330	0.018121332
23	0xbde73a77	-0.11290448
24	0xbda72cc9	-0.08162839
25	0x3dcd4f3d	0.10024879
26	0xbdc498aa	-0.09599431
27	0xbc476a41	-0.012171329
28	0xbd4d3fd3	-0.050109696
29	0x3d9dc5f3	0.077037714
30	0xbb94bc61	-0.004539058
31	0x3db20f34	0.08694306
32	0xbd3bf0db	-0.045883995
33	0xbd2a9adc	-0.04165159
34	0xbd938ed6	-0.07204978
35	0xbd768b48	-0.060191423
36	0x3cf98a97	0.030461593
37	0xb80af0d2	-3.3126045e-05
38	0xbc88f866	-0.016720008
39	0xbb605ae5	-0.0034233865
40	0x3c8ff9c9	0.017575162
41	0xbdc15374	-0.094397455
42	0xbcbd5a7a	-0.023114432
43	0x3c481e50	0.012214258
44	0x3db19259	0.08670492
45	0x3d630f83	0.055434715
46	0xbd80b677	-0.062848024
47	0x3dfa14ef	0.12211024
48	0xbdcecae6	-0.100972936
49	0xbdae5a5c	-0.085133284
50	0x3d867d91	0.06566919
51	0x3dd8038d	0.10547552
52	0xbc88eda1	-0.016714873
53	0xbba88df7	-0.0051438767
54	0x3d580d54	0.052747086
55	0xbd5dae8f	-0.05412155
56	0x3da03e6e	0.078244075
57	0xbdc507a3	-0.09620597
58	0xbdf60152	-0.120119706
59	0xbd15388c	-0.03643088
60	0xbd3b596a	-0.04573957
61	0xbd017680	-0.03160715
62	0x3bceadb0	0.0063073263
63	0xbceb7199	-0.028740691
64	0x3c16c4c3	0.009202185
65	0xbd916cb3	-0.07100811
66	0x3a67938d	0.00088339375
67	0x3df52dfb	0.11971661
68	0xbda6c156	-0.08142345
69	0xbcbc57ac	-0.022991024
70	0xbd0d7a51	-0.03454048
71	0xbd9ed547	-0.07755523
72	0xbd80fe21	-0.06298471
73	0xbdab2208	-0.083561
74	0xbc99e335	-0.018785099
75	0xbdef429b	-0.11682626
76	0x3dd3ebc5	0.10347704
77	0xbdcb8c89	-0.09938914
78	0x3d9a9f4e	0.07549916
79	0x3d8e1a2e	0.06938587
80	0xbddbb7f0	-0.10728443
81	0xbde6d6d7	-0.11271446
82	0x3d91d1f3	0.07120123
83	0xbdc0bcb2	-0.09410991
84	0xbd6f49c1	-0.058419947
85	0xbda865e3	-0.08222558
86	0xbcf7cc79	-0.030248867
87	0xbd10b8d1	-0.035332505
88	0xbda45c02	-0.080253616
89	0xbddceba9	-0.10787136
90	0x3e04287e	0.12906072
91	0x3ddf5c61	0.10906292
92	0x3df0743f	0.11740922
93	0xbd02a6c6	-0.03189733
94	0x3d20daca	0.039271154
95	0xbd03ea89	-0.032206092
96	0x3db395db	0.08768817
97	0xbd40ae2d	-0.047041107
98	0x3a2a5cd1	0.0006498816
99	0x3d480278	0.04883048
100	0x3d17e286	0.037081264
101	0x3ccfcbad	0.025365675
102	0xbddccc55	-0.10781161
103	0x3db014b3	0.08597698
104	0x3dbbbf8a	0.091673926
105	0x3d0bcbd1	0.03412992
106	0x3dadecde	0.084924445
107	0x3d3868da	0.04502187
108	0xbcd37b79	-0.025815712
109	0x3c9c251d	0.019060666
110	0xbc4b1434	-0.0123949535
111	0x3dc82fdc	0.097747535
112	0xbd9385df	-0.07203268
113	0xbd87e366	-0.0663517
114	0xbd9c4f65	-0.07632331
115	0x3ddde18e	0.10834037
116	0x3b2d1970	0.0026412867
117	0x3dcf29dc	0.10115406
118	0x3d342159	0.043977115
119	0x3dcfc170	0.10144317
120	0x3c37c9bc	0.011217531
121	0x3c880c80	0.016607523
122	0xbc771f43	-0.015083137
123	0x3d87b616	0.06626527
124	0x3c4d81d3	0.01254316
125	0x3dd0817f	0.101809494
126	0xbcb8b51b	-0.022547295
127	0xbdc268fb	-0.0949268
128	0xbd8c3326	-0.06845693
129	0xbadf14a4	-0.0017019701
130	0x3d975895	0.073899426
131	0xbd1f2fc2	-0.038863905
132	0xbdb0587d	-0.08610628
133	0xbde24115	-0.1104757
134	0xbd488c1f	-0.048961755
135	0xbd9e6838	-0.07734722
136	0xbdcfbf4d	-0.101439096
137	0x3cf8827a	0.030335654
138	0xbc96af65	-0.018394182
139	0x3defab8f	0.11702644
140	0x3c813109	0.015770452
141	0x3da70e6f	0.0815705
142	0x3d23c660	0.039984107
143	0xbc8f096f	-0.017460553
144	0x3d212d28	0.039349705
145	0x3dd54b1b	0.10414716
146	0xbd8d15dd	-0.06888936
147	0x3c1efb8a	0.009703526
148	0x3bd2a830	0.006428741
149	0x3dbd78c7	0.09251552
150	0xbdd10d5e	-0.10207628
151	0x3d48ab02	0.04899121
152	0xbdb96778	-0.09052938
153	0x3d4b7ef0	0.049681604
154	0xbb0c9a94	-0.002145444
155	0xbdec2230	-0.11529958
156	0x3ba7a46e	0.005116037
157	0x3dadd48a	0.08487804
158	0xbdab452e	-0.08362804
159	0x3dd95516	0.10611932
160	0x3dc160d7	0.09442299
161	0xbdace73c	-0.08442542
162	0xbd060b17	-0.03272542
163	0xbdcfeac4	-0.101522
164	0xbda190f0	-0.07888973
165	0x3a87f505	0.0010372704
166	0xbd81ca79	-0.06337447
167	0x3cf0722c	0.029351316
168	0xbdd00247	-0.10156684
169	0x3e027d80	0.12743187
170	0x3de775d1	0.113017686
171	0xbc6d1f22	-0.014472755
172	0xbd05db10	-0.032679617
173	0xbd860775	-0.06544391
174	0xbc75b3eb	-0.014996509
175	0x3c9dae14	0.019248046
176	0x3d1a64df	0.037693854
177	0x3da17baf	0.07884919
178	0xbdc95e54	-0.09832445
179	0x3cb0c3b1	0.021577688
180	0x3d6b4f09	0.05744842
181	0x3de48bba	0.11159463
182	0xbd0a3f4c	-0.03375177
183	0x3d719aac	0.058985397
184	0xbdcbc619	-0.099498935
185	0xbdfd2382	-0.12360288
186	0xbde41546	-0.1113687
187	0x3d68779c	0.056754693
188	0xbda94a58	-0.08266133
189	0x3d6089ca	0.054818906
190	0xbc0d3349	-0.008618184
191	0x3d6fa04e	0.058502488
192	0x3da4fda4	0.080561906
193	0x3cc59abe	0.024121638
194	0x3beac789	0.0071648997
195	0xbca7d772	-0.020488475
196	0x3dbcc4a2	0.09217192
197	0x3b2d1694	0.0026411163
198	0x3babd252	0.005243578
199	0x3cb012b7	0.021493299
200	0x3de53025	0.111908235
201	0x3db85a3f	0.09001588
202	0x3de3f393	0.111304425
203	0xbdb6cf1b	-0.08926221
204	0x3d5035da	0.050832607
205	0x3c8d0a27	0.017216755
206	0x3c97796c	0.018490516
207	0xbdea2c96	-0.11434285
208	0x3db2e969	0.08735926
209	0x3d9346b0	0.07191217
210	0xbdbfa099	-0.093568034
211	0xbc7a015e	-0.015259115
212	0xbaab222c	-0.0013056449
213	0x3d78c9e5	0.060739417
214	0xbdb44c01	-0.08803559
215	0x3d16c4c7	0.036808755
216	0x3d76b8a2	0.060234673
217	0x3da4fc29	0.08055908
218	0x3db04093	0.086060666
219	0xbdc855ef	-0.097820155
220	0x3cf7c986	0.030247461
221	0xbd862d54	-0.065516144
222	0x3d52a448	0.051426202
223	0x3cca03dd	0.024660045
224	0xbdd3407e	-0.10315035
225	0xbd922c45	-0.0713735
226	0x3ddb43b1	0.107062705
227	0x3d0b257c	0.033971295
228	0x3c05a8d1	0.008157925
229	0xbc8e9f70	-0.01741001
230	0x3c6c4c98	0.014422558
231	0xbcb7899f	-0.02240449
232	0xbd9669d5	-0.073444046
233	0xbdb4f36c	-0.088354915
234	0xbdd1e47b	-0.10248657
235	0xbde493da	-0.11161013
236	0x3b197bd7	0.0023419762
237	0xbdc51e4c	-0.09624919
238	0xbd8ba179	-0.06817908
239	0x3d518d79	0.05116031
240	0xbdcb6a00	-0.09932327
241	0x3b711698	0.0036787149
242	0x3d6ddbbb	0.05807088
243	0x3dab1b8c	0.083548635
244	0xbd451dfb	-0.048124295
245	0x3df278f0	0.11839473
246	0x3dfa4d57	0.12221783
247	0xbdf0c912	-0.11757101
248	0x3d2c6cab	0.04209582
249	0xbda1caaa	-0.07899983
250	0x3dd0de5f	0.10198664
251	0xbac62a62	-0.0015118832
252	0xbd343704	-0.04399778
253	0x3d9f9fee	0.07794176
254	0xbdeed943	-0.11662533
255	0xbdeaa290	-0.114567876
