models/dl_nn_output.pt (torch, 1782 bytes, 1 tensors)

weight f4 [1, 64]
00000000: 32e7 aa3c 8e85 adbd f37f e63c 3e89 973c
00000010: b510 4a3d db13 04be ee91 54bc 1811 5a3d
00000020: 1b01 283b a3cf ec3c 836c a7bc dbdd 0e3c
00000030: 5aeb 47bd 70d4 a2bc fd0e fe3c 4984 053e
00000040: 0e1f 88bd 60c5 88bd e24e a73d 7fb6 a63d
00000050: 08ff e93d 7185 acbd 8e80 dbbd 865d b73d
00000060: 3f47 82bd 1aeb d0b9 e7b5 cdbd 3d1e 93bd
00000070: 0312 f1bc 4fda c33d c067 c7bd 2420 1b3b
00000080: ec66 57bd 9fb9 d5ba 5f20 01bd b737 cf3d
00000090: 3211 7b3d 34e0 aabd 5d07 8f3c 3bda c1bd
000000a0: 077a a8bd 2267 f63d 941c e9bd 106b 95bd
000000b0: a8f8 a73d 0411 aa3d c870 68bd 2e06 45bb
000000c0: c2a0 4dbd 5858 e4bd fd7e ecbc 9a10 a93d
000000d0: 06c7 e13d 8578 86bb 80ec 01be 6963 a0bd
000000e0: eec3 203d 93fa 483b 6618 a6bc 6007 353d
000000f0: 9677 8d3c 0b9e b63c c418 3ebc adf1 8abd
0.020862196 -0.08472739 0.028137183 0.01849806 0.04933234 -0.128982 -0.0129742455 0.053238958
0.0025635425 0.028907603 -0.020437485 0.008719887 -0.048808433 -0.019876689 0.031013006 0.13038744
-0.06646548 -0.06678271 0.081693426 0.08140277 0.114255965 -0.084238894 -0.10717879 0.08953385
-0.06361245 -0.00039848016 -0.10044461 -0.07183502 -0.029427534 0.095631234 -0.097365856 0.002367028
-0.05258839 -0.001630593 -0.031525012 0.10118049 0.061295696 -0.083435446 0.017459566 -0.09465452
-0.082264 0.1203139 -0.11382404 -0.07295811 0.08201724 0.08304027 -0.05674818 -0.0030063498
-0.05020214 -0.11149663 -0.028869146 0.082551196 0.11024289 -0.0041037225 -0.12687874 -0.07831461
0.039249353 0.0030666932 -0.020275306 0.044196486 0.017268937 0.022292158 -0.011602584 -0.06784377
